…
I0414 09:55:01.423961  1901 net.cpp:322] The NetState phase (0) differed from the phase (1) specified by a rule in layer accuracy
I0414 09:55:01.424454  1901 net.cpp:58] Initializing net from parameters: 
name: "ResNet-50"
state {
  phase: TRAIN
  level: 0
  stage: ""
}
layer {
  name: "data"
  type: "Data"
  top: "data"
  top: "label"
  include {
    phase: TRAIN
  }
  transform_param {
    mirror: true
    crop_size: 224
    mean_file: "/disk2/data/tupu/lmdbs/2017-04-10-256-mean.binaryproto"
  }
  data_param {
    source: "/disk2/data/tupu/lmdbs/2017-04-10-256-train"
    batch_size: 32
    backend: LMDB
  }
}
layer {
  name: "conv1"
  type: "Convolution"
  bottom: "data"
  top: "conv1"
  convolution_param {
    num_output: 64
    pad: 3
    kernel_size: 7
    stride: 2
  }
}
layer {
  name: "bn_conv1"
  type: "BatchNorm"
  bottom: "conv1"
  top: "conv1"
  batch_norm_param {
    use_global_stats: true
  }
}
layer {
  name: "scale_conv1"
  type: "Scale"
  bottom: "conv1"
  top: "conv1"
  scale_param {
    bias_term: true
  }
}
layer {
  name: "conv1_relu"
  type: "ReLU"
  bottom: "conv1"
  top: "conv1"
}
layer {
  name: "pool1"
  type: "Pooling"
  bottom: "conv1"
  top: "pool1"
  pooling_param {
    pool: MAX
    kernel_size: 3
    stride: 2
  }
}
layer {
  name: "res2a_branch1"
  type: "Convolution"
  bottom: "pool1"
  top: "res2a_branch1"
  convolution_param {
    num_output: 256
    bias_term: false
    pad: 0
    kernel_size: 1
    stride: 1
  }
}
layer {
  name: "bn2a_branch1"
  type: "BatchNorm"
  bottom: "res2a_branch1"
  top: "res2a_branch1"
  batch_norm_param {
    use_global_stats: true
  }
}
layer {
  name: "scale2a_branch1"
  type: "Scale"
  bottom: "res2a_branch1"
  top: "res2a_branch1"
  scale_param {
    bias_term: true
  }
}
layer {
  name: "res2a_branch2a"
  type: "Convolution"
  bottom: "pool1"
  top: "res2a_branch2a"
  convolution_param {
    num_output: 64
    bias_term: false
    pad: 0
    kernel_size: 1
    stride: 1
  }
}
layer {
  name: "bn2a_branch2a"
  type: "BatchNorm"
  bottom: "res2a_branch2a"
  top: "res2a_branch2a"
  batch_norm_param {
    use_global_stats: true
  }
}
layer {
  name: "scale2a_branch2a"
  type: "Scale"
  bottom: "res2a_branch2a"
  top: "res2a_branch2a"
  scale_param {
    bias_term: true
  }
}
layer {
  name: "res2a_branch2a_relu"
  type: "ReLU"
  bottom: "res2a_branch2a"
  top: "res2a_branch2a"
}
layer {
  name: "res2a_branch2b"
  type: "Convolution"
  bottom: "res2a_branch2a"
  top: "res2a_branch2b"
  convolution_param {
    num_output: 64
    bias_term: false
    pad: 1
    kernel_size: 3
    stride: 1
  }
}
layer {
  name: "bn2a_branch2b"
  type: "BatchNorm"
  bottom: "res2a_branch2b"
  top: "res2a_branch2b"
  batch_norm_param {
    use_global_stats: true
  }
}
layer {
  name: "scale2a_branch2b"
  type: "Scale"
  bottom: "res2a_branch2b"
  top: "res2a_branch2b"
  scale_param {
    bias_term: true
  }
}
layer {
  name: "res2a_branch2b_relu"
  type: "ReLU"
  bottom: "res2a_branch2b"
  top: "res2a_branch2b"
}
layer {
  name: "res2a_branch2c"
  type: "Convolution"
  bottom: "res2a_branch2b"
  top: "res2a_branch2c"
  convolution_param {
    num_output: 256
    bias_term: false
    pad: 0
    kernel_size: 1
    stride: 1
  }
}
layer {
  name: "bn2a_branch2c"
  type: "BatchNorm"
  bottom: "res2a_branch2c"
  top: "res2a_branch2c"
  batch_norm_param {
    use_global_stats: true
  }
}
layer {
  name: "scale2a_branch2c"
  type: "Scale"
  bottom: "res2a_branch2c"
  top: "res2a_branch2c"
  scale_param {
    bias_term: true
  }
}
layer {
  name: "res2a"
  type: "Eltwise"
  bottom: "res2a_branch1"
  bottom: "res2a_branch2c"
  top: "res2a"
}
layer {
  name: "res2a_relu"
  type: "ReLU"
  bottom: "res2a"
  top: "res2a"
}
layer {
  name: "res2b_branch2a"
  type: "Convolution"
  bottom: "res2a"
  top: "res2b_branch2a"
  convolution_param {
    num_output: 64
    bias_term: false
    pad: 0
    kernel_size: 1
    stride: 1
  }
}
layer {
  name: "bn2b_branch2a"
  type: "BatchNorm"
  bottom: "res2b_branch2a"
  top: "res2b_branch2a"
  batch_norm_param {
    use_global_stats: true
  }
}
layer {
  name: "scale2b_branch2a"
  type: "Scale"
  bottom: "res2b_branch2a"
  top: "res2b_branch2a"
  scale_param {
    bias_term: true
  }
}
layer {
  name: "res2b_branch2a_relu"
  type: "ReLU"
  bottom: "res2b_branch2a"
  top: "res2b_branch2a"
}
layer {
  name: "res2b_branch2b"
  type: "Convolution"
  bottom: "res2b_branch2a"
  top: "res2b_branch2b"
  convolution_param {
    num_output: 64
    bias_term: false
    pad: 1
    kernel_size: 3
    stride: 1
  }
}
layer {
  name: "bn2b_branch2b"
  type: "BatchNorm"
  bottom: "res2b_branch2b"
  top: "res2b_branch2b"
  batch_norm_param {
    use_global_stats: true
  }
}
layer {
  name: "scale2b_branch2b"
  type: "Scale"
  bottom: "res2b_branch2b"
  top: "res2b_branch2b"
  scale_param {
    bias_term: true
  }
}
layer {
  name: "res2b_branch2b_relu"
  type: "ReLU"
  bottom: "res2b_branch2b"
  top: "res2b_branch2b"
}
layer {
  name: "res2b_branch2c"
  type: "Convolution"
  bottom: "res2b_branch2b"
  top: "res2b_branch2c"
  convolution_param {
    num_output: 256
    bias_term: false
    pad: 0
    kernel_size: 1
    stride: 1
  }
}
layer {
  name: "bn2b_branch2c"
  type: "BatchNorm"
  bottom: "res2b_branch2c"
  top: "res2b_branch2c"
  batch_norm_param {
    use_global_stats: true
  }
}
layer {
  name: "scale2b_branch2c"
  type: "Scale"
  bottom: "res2b_branch2c"
  top: "res2b_branch2c"
  scale_param {
    bias_term: true
  }
}
layer {
  name: "res2b"
  type: "Eltwise"
  bottom: "res2a"
  bottom: "res2b_branch2c"
  top: "res2b"
}
layer {
  name: "res2b_relu"
  type: "ReLU"
  bottom: "res2b"
  top: "res2b"
}
layer {
  name: "res2c_branch2a"
  type: "Convolution"
  bottom: "res2b"
  top: "res2c_branch2a"
  convolution_param {
    num_output: 64
    bias_term: false
    pad: 0
    kernel_size: 1
    stride: 1
  }
}
layer {
  name: "bn2c_branch2a"
  type: "BatchNorm"
  bottom: "res2c_branch2a"
  top: "res2c_branch2a"
  batch_norm_param {
    use_global_stats: true
  }
}
layer {
  name: "scale2c_branch2a"
  type: "Scale"
  bottom: "res2c_branch2a"
  top: "res2c_branch2a"
  scale_param {
    bias_term: true
  }
}
layer {
  name: "res2c_branch2a_relu"
  type: "ReLU"
  bottom: "res2c_branch2a"
  top: "res2c_branch2a"
}
layer {
  name: "res2c_branch2b"
  type: "Convolution"
  bottom: "res2c_branch2a"
  top: "res2c_branch2b"
  convolution_param {
    num_output: 64
    bias_term: false
    pad: 1
    kernel_size: 3
    stride: 1
  }
}
layer {
  name: "bn2c_branch2b"
  type: "BatchNorm"
  bottom: "res2c_branch2b"
  top: "res2c_branch2b"
  batch_norm_param {
    use_global_stats: true
  }
}
layer {
  name: "scale2c_branch2b"
  type: "Scale"
  bottom: "res2c_branch2b"
  top: "res2c_branch2b"
  scale_param {
    bias_term: true
  }
}
layer {
  name: "res2c_branch2b_relu"
  type: "ReLU"
  bottom: "res2c_branch2b"
  top: "res2c_branch2b"
}
layer {
  name: "res2c_branch2c"
  type: "Convolution"
  bottom: "res2c_branch2b"
  top: "res2c_branch2c"
  convolution_param {
    num_output: 256
    bias_term: false
    pad: 0
    kernel_size: 1
    stride: 1
  }
}
layer {
  name: "bn2c_branch2c"
  type: "BatchNorm"
  bottom: "res2c_branch2c"
  top: "res2c_branch2c"
  batch_norm_param {
    use_global_stats: true
  }
}
layer {
  name: "scale2c_branch2c"
  type: "Scale"
  bottom: "res2c_branch2c"
  top: "res2c_branch2c"
  scale_param {
    bias_term: true
  }
}
layer {
  name: "res2c"
  type: "Eltwise"
  bottom: "res2b"
  bottom: "res2c_branch2c"
  top: "res2c"
}
layer {
  name: "res2c_relu"
  type: "ReLU"
  bottom: "res2c"
  top: "res2c"
}
layer {
  name: "res3a_branch1"
  type: "Convolution"
  bottom: "res2c"
  top: "res3a_branch1"
  convolution_param {
    num_output: 512
    bias_term: false
    pad: 0
    kernel_size: 1
    stride: 2
  }
}
layer {
  name: "bn3a_branch1"
  type: "BatchNorm"
  bottom: "res3a_branch1"
  top: "res3a_branch1"
  batch_norm_param {
    use_global_stats: true
  }
}
layer {
  name: "scale3a_branch1"
  type: "Scale"
  bottom: "res3a_branch1"
  top: "res3a_branch1"
  scale_param {
    bias_term: true
  }
}
layer {
  name: "res3a_branch2a"
  type: "Convolution"
  bottom: "res2c"
  top: "res3a_branch2a"
  convolution_param {
    num_output: 128
    bias_term: false
    pad: 0
    kernel_size: 1
    stride: 2
  }
}
layer {
  name: "bn3a_branch2a"
  type: "BatchNorm"
  bottom: "res3a_branch2a"
  top: "res3a_branch2a"
  batch_norm_param {
    use_global_stats: true
  }
}
layer {
  name: "scale3a_branch2a"
  type: "Scale"
  bottom: "res3a_branch2a"
  top: "res3a_branch2a"
  scale_param {
    bias_term: true
  }
}
layer {
  name: "res3a_branch2a_relu"
  type: "ReLU"
  bottom: "res3a_branch2a"
  top: "res3a_branch2a"
}
layer {
  name: "res3a_branch2b"
  type: "Convolution"
  bottom: "res3a_branch2a"
  top: "res3a_branch2b"
  convolution_param {
    num_output: 128
    bias_term: false
    pad: 1
    kernel_size: 3
    stride: 1
  }
}
layer {
  name: "bn3a_branch2b"
  type: "BatchNorm"
  bottom: "res3a_branch2b"
  top: "res3a_branch2b"
  batch_norm_param {
    use_global_stats: true
  }
}
layer {
  name: "scale3a_branch2b"
  type: "Scale"
  bottom: "res3a_branch2b"
  top: "res3a_branch2b"
  scale_param {
    bias_term: true
  }
}
layer {
  name: "res3a_branch2b_relu"
  type: "ReLU"
  bottom: "res3a_branch2b"
  top: "res3a_branch2b"
}
layer {
  name: "res3a_branch2c"
  type: "Convolution"
  bottom: "res3a_branch2b"
  top: "res3a_branch2c"
  convolution_param {
    num_output: 512
    bias_term: false
    pad: 0
    kernel_size: 1
    stride: 1
  }
}
layer {
  name: "bn3a_branch2c"
  type: "BatchNorm"
  bottom: "res3a_branch2c"
  top: "res3a_branch2c"
  batch_norm_param {
    use_global_stats: true
  }
}
layer {
  name: "scale3a_branch2c"
  type: "Scale"
  bottom: "res3a_branch2c"
  top: "res3a_branch2c"
  scale_param {
    bias_term: true
  }
}
layer {
  name: "res3a"
  type: "Eltwise"
  bottom: "res3a_branch1"
  bottom: "res3a_branch2c"
  top: "res3a"
}
layer {
  name: "res3a_relu"
  type: "ReLU"
  bottom: "res3a"
  top: "res3a"
}
layer {
  name: "res3b_branch2a"
  type: "Convolution"
  bottom: "res3a"
  top: "res3b_branch2a"
  convolution_param {
    num_output: 128
    bias_term: false
    pad: 0
    kernel_size: 1
    stride: 1
  }
}
layer {
  name: "bn3b_branch2a"
  type: "BatchNorm"
  bottom: "res3b_branch2a"
  top: "res3b_branch2a"
  batch_norm_param {
    use_global_stats: true
  }
}
layer {
  name: "scale3b_branch2a"
  type: "Scale"
  bottom: "res3b_branch2a"
  top: "res3b_branch2a"
  scale_param {
    bias_term: true
  }
}
layer {
  name: "res3b_branch2a_relu"
  type: "ReLU"
  bottom: "res3b_branch2a"
  top: "res3b_branch2a"
}
layer {
  name: "res3b_branch2b"
  type: "Convolution"
  bottom: "res3b_branch2a"
  top: "res3b_branch2b"
  convolution_param {
    num_output: 128
    bias_term: false
    pad: 1
    kernel_size: 3
    stride: 1
  }
}
layer {
  name: "bn3b_branch2b"
  type: "BatchNorm"
  bottom: "res3b_branch2b"
  top: "res3b_branch2b"
  batch_norm_param {
    use_global_stats: true
  }
}
layer {
  name: "scale3b_branch2b"
  type: "Scale"
  bottom: "res3b_branch2b"
  top: "res3b_branch2b"
  scale_param {
    bias_term: true
  }
}
layer {
  name: "res3b_branch2b_relu"
  type: "ReLU"
  bottom: "res3b_branch2b"
  top: "res3b_branch2b"
}
layer {
  name: "res3b_branch2c"
  type: "Convolution"
  bottom: "res3b_branch2b"
  top: "res3b_branch2c"
  convolution_param {
    num_output: 512
    bias_term: false
    pad: 0
    kernel_size: 1
    stride: 1
  }
}
layer {
  name: "bn3b_branch2c"
  type: "BatchNorm"
  bottom: "res3b_branch2c"
  top: "res3b_branch2c"
  batch_norm_param {
    use_global_stats: true
  }
}
layer {
  name: "scale3b_branch2c"
  type: "Scale"
  bottom: "res3b_branch2c"
  top: "res3b_branch2c"
  scale_param {
    bias_term: true
  }
}
layer {
  name: "res3b"
  type: "Eltwise"
  bottom: "res3a"
  bottom: "res3b_branch2c"
  top: "res3b"
}
layer {
  name: "res3b_relu"
  type: "ReLU"
  bottom: "res3b"
  top: "res3b"
}
layer {
  name: "res3c_branch2a"
  type: "Convolution"
  bottom: "res3b"
  top: "res3c_branch2a"
  convolution_param {
    num_output: 128
    bias_term: false
    pad: 0
    kernel_size: 1
    stride: 1
  }
}
layer {
  name: "bn3c_branch2a"
  type: "BatchNorm"
  bottom: "res3c_branch2a"
  top: "res3c_branch2a"
  batch_norm_param {
    use_global_stats: true
  }
}
layer {
  name: "scale3c_branch2a"
  type: "Scale"
  bottom: "res3c_branch2a"
  top: "res3c_branch2a"
  scale_param {
    bias_term: true
  }
}
layer {
  name: "res3c_branch2a_relu"
  type: "ReLU"
  bottom: "res3c_branch2a"
  top: "res3c_branch2a"
}
layer {
  name: "res3c_branch2b"
  type: "Convolution"
  bottom: "res3c_branch2a"
  top: "res3c_branch2b"
  convolution_param {
    num_output: 128
    bias_term: false
    pad: 1
    kernel_size: 3
    stride: 1
  }
}
layer {
  name: "bn3c_branch2b"
  type: "BatchNorm"
  bottom: "res3c_branch2b"
  top: "res3c_branch2b"
  batch_norm_param {
    use_global_stats: true
  }
}
layer {
  name: "scale3c_branch2b"
  type: "Scale"
  bottom: "res3c_branch2b"
  top: "res3c_branch2b"
  scale_param {
    bias_term: true
  }
}
layer {
  name: "res3c_branch2b_relu"
  type: "ReLU"
  bottom: "res3c_branch2b"
  top: "res3c_branch2b"
}
layer {
  name: "res3c_branch2c"
  type: "Convolution"
  bottom: "res3c_branch2b"
  top: "res3c_branch2c"
  convolution_param {
    num_output: 512
    bias_term: false
    pad: 0
    kernel_size: 1
    stride: 1
  }
}
layer {
  name: "bn3c_branch2c"
  type: "BatchNorm"
  bottom: "res3c_branch2c"
  top: "res3c_branch2c"
  batch_norm_param {
    use_global_stats: true
  }
}
layer {
  name: "scale3c_branch2c"
  type: "Scale"
  bottom: "res3c_branch2c"
  top: "res3c_branch2c"
  scale_param {
    bias_term: true
  }
}
layer {
  name: "res3c"
  type: "Eltwise"
  bottom: "res3b"
  bottom: "res3c_branch2c"
  top: "res3c"
}
layer {
  name: "res3c_relu"
  type: "ReLU"
  bottom: "res3c"
  top: "res3c"
}
layer {
  name: "res3d_branch2a"
  type: "Convolution"
  bottom: "res3c"
  top: "res3d_branch2a"
  convolution_param {
    num_output: 128
    bias_term: false
    pad: 0
    kernel_size: 1
    stride: 1
  }
}
layer {
  name: "bn3d_branch2a"
  type: "BatchNorm"
  bottom: "res3d_branch2a"
  top: "res3d_branch2a"
  batch_norm_param {
    use_global_stats: true
  }
}
layer {
  name: "scale3d_branch2a"
  type: "Scale"
  bottom: "res3d_branch2a"
  top: "res3d_branch2a"
  scale_param {
    bias_term: true
  }
}
layer {
  name: "res3d_branch2a_relu"
  type: "ReLU"
  bottom: "res3d_branch2a"
  top: "res3d_branch2a"
}
layer {
  name: "res3d_branch2b"
  type: "Convolution"
  bottom: "res3d_branch2a"
  top: "res3d_branch2b"
  convolution_param {
    num_output: 128
    bias_term: false
    pad: 1
    kernel_size: 3
    stride: 1
  }
}
layer {
  name: "bn3d_branch2b"
  type: "BatchNorm"
  bottom: "res3d_branch2b"
  top: "res3d_branch2b"
  batch_norm_param {
    use_global_stats: true
  }
}
layer {
  name: "scale3d_branch2b"
  type: "Scale"
  bottom: "res3d_branch2b"
  top: "res3d_branch2b"
  scale_param {
    bias_term: true
  }
}
layer {
  name: "res3d_branch2b_relu"
  type: "ReLU"
  bottom: "res3d_branch2b"
  top: "res3d_branch2b"
}
layer {
  name: "res3d_branch2c"
  type: "Convolution"
  bottom: "res3d_branch2b"
  top: "res3d_branch2c"
  convolution_param {
    num_output: 512
    bias_term: false
    pad: 0
    kernel_size: 1
    stride: 1
  }
}
layer {
  name: "bn3d_branch2c"
  type: "BatchNorm"
  bottom: "res3d_branch2c"
  top: "res3d_branch2c"
  batch_norm_param {
    use_global_stats: true
  }
}
layer {
  name: "scale3d_branch2c"
  type: "Scale"
  bottom: "res3d_branch2c"
  top: "res3d_branch2c"
  scale_param {
    bias_term: true
  }
}
layer {
  name: "res3d"
  type: "Eltwise"
  bottom: "res3c"
  bottom: "res3d_branch2c"
  top: "res3d"
}
layer {
  name: "res3d_relu"
  type: "ReLU"
  bottom: "res3d"
  top: "res3d"
}
layer {
  name: "res4a_branch1"
  type: "Convolution"
  bottom: "res3d"
  top: "res4a_branch1"
  convolution_param {
    num_output: 1024
    bias_term: false
    pad: 0
    kernel_size: 1
    stride: 2
  }
}
layer {
  name: "bn4a_branch1"
  type: "BatchNorm"
  bottom: "res4a_branch1"
  top: "res4a_branch1"
  batch_norm_param {
    use_global_stats: true
  }
}
layer {
  name: "scale4a_branch1"
  type: "Scale"
  bottom: "res4a_branch1"
  top: "res4a_branch1"
  scale_param {
    bias_term: true
  }
}
layer {
  name: "res4a_branch2a"
  type: "Convolution"
  bottom: "res3d"
  top: "res4a_branch2a"
  convolution_param {
    num_output: 256
    bias_term: false
    pad: 0
    kernel_size: 1
    stride: 2
  }
}
layer {
  name: "bn4a_branch2a"
  type: "BatchNorm"
  bottom: "res4a_branch2a"
  top: "res4a_branch2a"
  batch_norm_param {
    use_global_stats: true
  }
}
layer {
  name: "scale4a_branch2a"
  type: "Scale"
  bottom: "res4a_branch2a"
  top: "res4a_branch2a"
  scale_param {
    bias_term: true
  }
}
layer {
  name: "res4a_branch2a_relu"
  type: "ReLU"
  bottom: "res4a_branch2a"
  top: "res4a_branch2a"
}
layer {
  name: "res4a_branch2b"
  type: "Convolution"
  bottom: "res4a_branch2a"
  top: "res4a_branch2b"
  convolution_param {
    num_output: 256
    bias_term: false
    pad: 1
    kernel_size: 3
    stride: 1
  }
}
layer {
  name: "bn4a_branch2b"
  type: "BatchNorm"
  bottom: "res4a_branch2b"
  top: "res4a_branch2b"
  batch_norm_param {
    use_global_stats: true
  }
}
layer {
  name: "scale4a_branch2b"
  type: "Scale"
  bottom: "res4a_branch2b"
  top: "res4a_branch2b"
  scale_param {
    bias_term: true
  }
}
layer {
  name: "res4a_branch2b_relu"
  type: "ReLU"
  bottom: "res4a_branch2b"
  top: "res4a_branch2b"
}
layer {
  name: "res4a_branch2c"
  type: "Convolution"
  bottom: "res4a_branch2b"
  top: "res4a_branch2c"
  convolution_param {
    num_output: 1024
    bias_term: false
    pad: 0
    kernel_size: 1
    stride: 1
  }
}
layer {
  name: "bn4a_branch2c"
  type: "BatchNorm"
  bottom: "res4a_branch2c"
  top: "res4a_branch2c"
  batch_norm_param {
    use_global_stats: true
  }
}
layer {
  name: "scale4a_branch2c"
  type: "Scale"
  bottom: "res4a_branch2c"
  top: "res4a_branch2c"
  scale_param {
    bias_term: true
  }
}
layer {
  name: "res4a"
  type: "Eltwise"
  bottom: "res4a_branch1"
  bottom: "res4a_branch2c"
  top: "res4a"
}
layer {
  name: "res4a_relu"
  type: "ReLU"
  bottom: "res4a"
  top: "res4a"
}
layer {
  name: "res4b_branch2a"
  type: "Convolution"
  bottom: "res4a"
  top: "res4b_branch2a"
  convolution_param {
    num_output: 256
    bias_term: false
    pad: 0
    kernel_size: 1
    stride: 1
  }
}
layer {
  name: "bn4b_branch2a"
  type: "BatchNorm"
  bottom: "res4b_branch2a"
  top: "res4b_branch2a"
  batch_norm_param {
    use_global_stats: true
  }
}
layer {
  name: "scale4b_branch2a"
  type: "Scale"
  bottom: "res4b_branch2a"
  top: "res4b_branch2a"
  scale_param {
    bias_term: true
  }
}
layer {
  name: "res4b_branch2a_relu"
  type: "ReLU"
  bottom: "res4b_branch2a"
  top: "res4b_branch2a"
}
layer {
  name: "res4b_branch2b"
  type: "Convolution"
  bottom: "res4b_branch2a"
  top: "res4b_branch2b"
  convolution_param {
    num_output: 256
    bias_term: false
    pad: 1
    kernel_size: 3
    stride: 1
  }
}
layer {
  name: "bn4b_branch2b"
  type: "BatchNorm"
  bottom: "res4b_branch2b"
  top: "res4b_branch2b"
  batch_norm_param {
    use_global_stats: true
  }
}
layer {
  name: "scale4b_branch2b"
  type: "Scale"
  bottom: "res4b_branch2b"
  top: "res4b_branch2b"
  scale_param {
    bias_term: true
  }
}
layer {
  name: "res4b_branch2b_relu"
  type: "ReLU"
  bottom: "res4b_branch2b"
  top: "res4b_branch2b"
}
layer {
  name: "res4b_branch2c"
  type: "Convolution"
  bottom: "res4b_branch2b"
  top: "res4b_branch2c"
  convolution_param {
    num_output: 1024
    bias_term: false
    pad: 0
    kernel_size: 1
    stride: 1
  }
}
layer {
  name: "bn4b_branch2c"
  type: "BatchNorm"
  bottom: "res4b_branch2c"
  top: "res4b_branch2c"
  batch_norm_param {
    use_global_stats: true
  }
}
layer {
  name: "scale4b_branch2c"
  type: "Scale"
  bottom: "res4b_branch2c"
  top: "res4b_branch2c"
  scale_param {
    bias_term: true
  }
}
layer {
  name: "res4b"
  type: "Eltwise"
  bottom: "res4a"
  bottom: "res4b_branch2c"
  top: "res4b"
}
layer {
  name: "res4b_relu"
  type: "ReLU"
  bottom: "res4b"
  top: "res4b"
}
layer {
  name: "res4c_branch2a"
  type: "Convolution"
  bottom: "res4b"
  top: "res4c_branch2a"
  convolution_param {
    num_output: 256
    bias_term: false
    pad: 0
    kernel_size: 1
    stride: 1
  }
}
layer {
  name: "bn4c_branch2a"
  type: "BatchNorm"
  bottom: "res4c_branch2a"
  top: "res4c_branch2a"
  batch_norm_param {
    use_global_stats: true
  }
}
layer {
  name: "scale4c_branch2a"
  type: "Scale"
  bottom: "res4c_branch2a"
  top: "res4c_branch2a"
  scale_param {
    bias_term: true
  }
}
layer {
  name: "res4c_branch2a_relu"
  type: "ReLU"
  bottom: "res4c_branch2a"
  top: "res4c_branch2a"
}
layer {
  name: "res4c_branch2b"
  type: "Convolution"
  bottom: "res4c_branch2a"
  top: "res4c_branch2b"
  convolution_param {
    num_output: 256
    bias_term: false
    pad: 1
    kernel_size: 3
    stride: 1
  }
}
layer {
  name: "bn4c_branch2b"
  type: "BatchNorm"
  bottom: "res4c_branch2b"
  top: "res4c_branch2b"
  batch_norm_param {
    use_global_stats: true
  }
}
layer {
  name: "scale4c_branch2b"
  type: "Scale"
  bottom: "res4c_branch2b"
  top: "res4c_branch2b"
  scale_param {
    bias_term: true
  }
}
layer {
  name: "res4c_branch2b_relu"
  type: "ReLU"
  bottom: "res4c_branch2b"
  top: "res4c_branch2b"
}
layer {
  name: "res4c_branch2c"
  type: "Convolution"
  bottom: "res4c_branch2b"
  top: "res4c_branch2c"
  convolution_param {
    num_output: 1024
    bias_term: false
    pad: 0
    kernel_size: 1
    stride: 1
  }
}
layer {
  name: "bn4c_branch2c"
  type: "BatchNorm"
  bottom: "res4c_branch2c"
  top: "res4c_branch2c"
  batch_norm_param {
    use_global_stats: true
  }
}
layer {
  name: "scale4c_branch2c"
  type: "Scale"
  bottom: "res4c_branch2c"
  top: "res4c_branch2c"
  scale_param {
    bias_term: true
  }
}
layer {
  name: "res4c"
  type: "Eltwise"
  bottom: "res4b"
  bottom: "res4c_branch2c"
  top: "res4c"
}
layer {
  name: "res4c_relu"
  type: "ReLU"
  bottom: "res4c"
  top: "res4c"
}
layer {
  name: "res4d_branch2a"
  type: "Convolution"
  bottom: "res4c"
  top: "res4d_branch2a"
  convolution_param {
    num_output: 256
    bias_term: false
    pad: 0
    kernel_size: 1
    stride: 1
  }
}
layer {
  name: "bn4d_branch2a"
  type: "BatchNorm"
  bottom: "res4d_branch2a"
  top: "res4d_branch2a"
  batch_norm_param {
    use_global_stats: true
  }
}
layer {
  name: "scale4d_branch2a"
  type: "Scale"
  bottom: "res4d_branch2a"
  top: "res4d_branch2a"
  scale_param {
    bias_term: true
  }
}
layer {
  name: "res4d_branch2a_relu"
  type: "ReLU"
  bottom: "res4d_branch2a"
  top: "res4d_branch2a"
}
layer {
  name: "res4d_branch2b"
  type: "Convolution"
  bottom: "res4d_branch2a"
  top: "res4d_branch2b"
  convolution_param {
    num_output: 256
    bias_term: false
    pad: 1
    kernel_size: 3
    stride: 1
  }
}
layer {
  name: "bn4d_branch2b"
  type: "BatchNorm"
  bottom: "res4d_branch2b"
  top: "res4d_branch2b"
  batch_norm_param {
    use_global_stats: true
  }
}
layer {
  name: "scale4d_branch2b"
  type: "Scale"
  bottom: "res4d_branch2b"
  top: "res4d_branch2b"
  scale_param {
    bias_term: true
  }
}
layer {
  name: "res4d_branch2b_relu"
  type: "ReLU"
  bottom: "res4d_branch2b"
  top: "res4d_branch2b"
}
layer {
  name: "res4d_branch2c"
  type: "Convolution"
  bottom: "res4d_branch2b"
  top: "res4d_branch2c"
  convolution_param {
    num_output: 1024
    bias_term: false
    pad: 0
    kernel_size: 1
    stride: 1
  }
}
layer {
  name: "bn4d_branch2c"
  type: "BatchNorm"
  bottom: "res4d_branch2c"
  top: "res4d_branch2c"
  batch_norm_param {
    use_global_stats: true
  }
}
layer {
  name: "scale4d_branch2c"
  type: "Scale"
  bottom: "res4d_branch2c"
  top: "res4d_branch2c"
  scale_param {
    bias_term: true
  }
}
layer {
  name: "res4d"
  type: "Eltwise"
  bottom: "res4c"
  bottom: "res4d_branch2c"
  top: "res4d"
}
layer {
  name: "res4d_relu"
  type: "ReLU"
  bottom: "res4d"
  top: "res4d"
}
layer {
  name: "res4e_branch2a"
  type: "Convolution"
  bottom: "res4d"
  top: "res4e_branch2a"
  convolution_param {
    num_output: 256
    bias_term: false
    pad: 0
    kernel_size: 1
    stride: 1
  }
}
layer {
  name: "bn4e_branch2a"
  type: "BatchNorm"
  bottom: "res4e_branch2a"
  top: "res4e_branch2a"
  batch_norm_param {
    use_global_stats: true
  }
}
layer {
  name: "scale4e_branch2a"
  type: "Scale"
  bottom: "res4e_branch2a"
  top: "res4e_branch2a"
  scale_param {
    bias_term: true
  }
}
layer {
  name: "res4e_branch2a_relu"
  type: "ReLU"
  bottom: "res4e_branch2a"
  top: "res4e_branch2a"
}
layer {
  name: "res4e_branch2b"
  type: "Convolution"
  bottom: "res4e_branch2a"
  top: "res4e_branch2b"
  convolution_param {
    num_output: 256
    bias_term: false
    pad: 1
    kernel_size: 3
    stride: 1
  }
}
layer {
  name: "bn4e_branch2b"
  type: "BatchNorm"
  bottom: "res4e_branch2b"
  top: "res4e_branch2b"
  batch_norm_param {
    use_global_stats: true
  }
}
layer {
  name: "scale4e_branch2b"
  type: "Scale"
  bottom: "res4e_branch2b"
  top: "res4e_branch2b"
  scale_param {
    bias_term: true
  }
}
layer {
  name: "res4e_branch2b_relu"
  type: "ReLU"
  bottom: "res4e_branch2b"
  top: "res4e_branch2b"
}
layer {
  name: "res4e_branch2c"
  type: "Convolution"
  bottom: "res4e_branch2b"
  top: "res4e_branch2c"
  convolution_param {
    num_output: 1024
    bias_term: false
    pad: 0
    kernel_size: 1
    stride: 1
  }
}
layer {
  name: "bn4e_branch2c"
  type: "BatchNorm"
  bottom: "res4e_branch2c"
  top: "res4e_branch2c"
  batch_norm_param {
    use_global_stats: true
  }
}
layer {
  name: "scale4e_branch2c"
  type: "Scale"
  bottom: "res4e_branch2c"
  top: "res4e_branch2c"
  scale_param {
    bias_term: true
  }
}
layer {
  name: "res4e"
  type: "Eltwise"
  bottom: "res4d"
  bottom: "res4e_branch2c"
  top: "res4e"
}
layer {
  name: "res4e_relu"
  type: "ReLU"
  bottom: "res4e"
  top: "res4e"
}
layer {
  name: "res4f_branch2a"
  type: "Convolution"
  bottom: "res4e"
  top: "res4f_branch2a"
  convolution_param {
    num_output: 256
    bias_term: false
    pad: 0
    kernel_size: 1
    stride: 1
  }
}
layer {
  name: "bn4f_branch2a"
  type: "BatchNorm"
  bottom: "res4f_branch2a"
  top: "res4f_branch2a"
  batch_norm_param {
    use_global_stats: true
  }
}
layer {
  name: "scale4f_branch2a"
  type: "Scale"
  bottom: "res4f_branch2a"
  top: "res4f_branch2a"
  scale_param {
    bias_term: true
  }
}
layer {
  name: "res4f_branch2a_relu"
  type: "ReLU"
  bottom: "res4f_branch2a"
  top: "res4f_branch2a"
}
layer {
  name: "res4f_branch2b"
  type: "Convolution"
  bottom: "res4f_branch2a"
  top: "res4f_branch2b"
  convolution_param {
    num_output: 256
    bias_term: false
    pad: 1
    kernel_size: 3
    stride: 1
  }
}
layer {
  name: "bn4f_branch2b"
  type: "BatchNorm"
  bottom: "res4f_branch2b"
  top: "res4f_branch2b"
  batch_norm_param {
    use_global_stats: true
  }
}
layer {
  name: "scale4f_branch2b"
  type: "Scale"
  bottom: "res4f_branch2b"
  top: "res4f_branch2b"
  scale_param {
    bias_term: true
  }
}
layer {
  name: "res4f_branch2b_relu"
  type: "ReLU"
  bottom: "res4f_branch2b"
  top: "res4f_branch2b"
}
layer {
  name: "res4f_branch2c"
  type: "Convolution"
  bottom: "res4f_branch2b"
  top: "res4f_branch2c"
  convolution_param {
    num_output: 1024
    bias_term: false
    pad: 0
    kernel_size: 1
    stride: 1
  }
}
layer {
  name: "bn4f_branch2c"
  type: "BatchNorm"
  bottom: "res4f_branch2c"
  top: "res4f_branch2c"
  batch_norm_param {
    use_global_stats: true
  }
}
layer {
  name: "scale4f_branch2c"
  type: "Scale"
  bottom: "res4f_branch2c"
  top: "res4f_branch2c"
  scale_param {
    bias_term: true
  }
}
layer {
  name: "res4f"
  type: "Eltwise"
  bottom: "res4e"
  bottom: "res4f_branch2c"
  top: "res4f"
}
layer {
  name: "res4f_relu"
  type: "ReLU"
  bottom: "res4f"
  top: "res4f"
}
layer {
  name: "res5a_branch1"
  type: "Convolution"
  bottom: "res4f"
  top: "res5a_branch1"
  convolution_param {
    num_output: 2048
    bias_term: false
    pad: 0
    kernel_size: 1
    stride: 2
  }
}
layer {
  name: "bn5a_branch1"
  type: "BatchNorm"
  bottom: "res5a_branch1"
  top: "res5a_branch1"
  batch_norm_param {
    use_global_stats: true
  }
}
layer {
  name: "scale5a_branch1"
  type: "Scale"
  bottom: "res5a_branch1"
  top: "res5a_branch1"
  scale_param {
    bias_term: true
  }
}
layer {
  name: "res5a_branch2a"
  type: "Convolution"
  bottom: "res4f"
  top: "res5a_branch2a"
  convolution_param {
    num_output: 512
    bias_term: false
    pad: 0
    kernel_size: 1
    stride: 2
  }
}
layer {
  name: "bn5a_branch2a"
  type: "BatchNorm"
  bottom: "res5a_branch2a"
  top: "res5a_branch2a"
  batch_norm_param {
    use_global_stats: true
  }
}
layer {
  name: "scale5a_branch2a"
  type: "Scale"
  bottom: "res5a_branch2a"
  top: "res5a_branch2a"
  scale_param {
    bias_term: true
  }
}
layer {
  name: "res5a_branch2a_relu"
  type: "ReLU"
  bottom: "res5a_branch2a"
  top: "res5a_branch2a"
}
layer {
  name: "res5a_branch2b"
  type: "Convolution"
  bottom: "res5a_branch2a"
  top: "res5a_branch2b"
  convolution_param {
    num_output: 512
    bias_term: false
    pad: 1
    kernel_size: 3
    stride: 1
  }
}
layer {
  name: "bn5a_branch2b"
  type: "BatchNorm"
  bottom: "res5a_branch2b"
  top: "res5a_branch2b"
  batch_norm_param {
    use_global_stats: true
  }
}
layer {
  name: "scale5a_branch2b"
  type: "Scale"
  bottom: "res5a_branch2b"
  top: "res5a_branch2b"
  scale_param {
    bias_term: true
  }
}
layer {
  name: "res5a_branch2b_relu"
  type: "ReLU"
  bottom: "res5a_branch2b"
  top: "res5a_branch2b"
}
layer {
  name: "res5a_branch2c"
  type: "Convolution"
  bottom: "res5a_branch2b"
  top: "res5a_branch2c"
  convolution_param {
    num_output: 2048
    bias_term: false
    pad: 0
    kernel_size: 1
    stride: 1
  }
}
layer {
  name: "bn5a_branch2c"
  type: "BatchNorm"
  bottom:
I0414 09:55:01.425182  1901 layer_factory.hpp:77] Creating layer data
I0414 09:55:01.425915  1901 net.cpp:100] Creating Layer data
I0414 09:55:01.425930  1901 net.cpp:408] data -> data
I0414 09:55:01.425947  1901 net.cpp:408] data -> label
I0414 09:55:01.425961  1901 data_transformer.cpp:25] Loading mean file from: /disk2/data/tupu/lmdbs/2017-04-10-256-mean.binaryproto
I0414 09:55:01.437361  1904 db_lmdb.cpp:35] Opened lmdb /disk2/data/tupu/lmdbs/2017-04-10-256-train
I0414 09:55:01.486974  1901 data_layer.cpp:41] output data size: 32,3,224,224
I0414 09:55:01.520301  1901 net.cpp:150] Setting up data
I0414 09:55:01.520344  1901 net.cpp:157] Top shape: 32 3 224 224 (4816896)
I0414 09:55:01.520349  1901 net.cpp:157] Top shape: 32 (32)
I0414 09:55:01.520352  1901 net.cpp:165] Memory required for data: 19267712
I0414 09:55:01.520361  1901 layer_factory.hpp:77] Creating layer conv1
I0414 09:55:01.520388  1901 net.cpp:100] Creating Layer conv1
I0414 09:55:01.520395  1901 net.cpp:434] conv1 <- data
I0414 09:55:01.520406  1901 net.cpp:408] conv1 -> conv1
I0414 09:55:01.525249  1905 blocking_queue.cpp:50] Waiting for data
I0414 09:55:02.107334  1901 net.cpp:150] Setting up conv1
I0414 09:55:02.107374  1901 net.cpp:157] Top shape: 32 64 112 112 (25690112)
I0414 09:55:02.107380  1901 net.cpp:165] Memory required for data: 122028160
I0414 09:55:02.107420  1901 layer_factory.hpp:77] Creating layer bn_conv1
I0414 09:55:02.107434  1901 net.cpp:100] Creating Layer bn_conv1
I0414 09:55:02.107437  1901 net.cpp:434] bn_conv1 <- conv1
I0414 09:55:02.107442  1901 net.cpp:395] bn_conv1 -> conv1 (in-place)
I0414 09:55:02.107592  1901 net.cpp:150] Setting up bn_conv1
I0414 09:55:02.107599  1901 net.cpp:157] Top shape: 32 64 112 112 (25690112)
I0414 09:55:02.107601  1901 net.cpp:165] Memory required for data: 224788608
I0414 09:55:02.107610  1901 layer_factory.hpp:77] Creating layer scale_conv1
I0414 09:55:02.107621  1901 net.cpp:100] Creating Layer scale_conv1
I0414 09:55:02.107625  1901 net.cpp:434] scale_conv1 <- conv1
I0414 09:55:02.107630  1901 net.cpp:395] scale_conv1 -> conv1 (in-place)
I0414 09:55:02.107662  1901 layer_factory.hpp:77] Creating layer scale_conv1
I0414 09:55:02.107755  1901 net.cpp:150] Setting up scale_conv1
I0414 09:55:02.107761  1901 net.cpp:157] Top shape: 32 64 112 112 (25690112)
I0414 09:55:02.107764  1901 net.cpp:165] Memory required for data: 327549056
I0414 09:55:02.107769  1901 layer_factory.hpp:77] Creating layer conv1_relu
I0414 09:55:02.107774  1901 net.cpp:100] Creating Layer conv1_relu
I0414 09:55:02.107777  1901 net.cpp:434] conv1_relu <- conv1
I0414 09:55:02.107781  1901 net.cpp:395] conv1_relu -> conv1 (in-place)
I0414 09:55:02.107909  1901 net.cpp:150] Setting up conv1_relu
I0414 09:55:02.107916  1901 net.cpp:157] Top shape: 32 64 112 112 (25690112)
I0414 09:55:02.107918  1901 net.cpp:165] Memory required for data: 430309504
I0414 09:55:02.107921  1901 layer_factory.hpp:77] Creating layer pool1
I0414 09:55:02.107928  1901 net.cpp:100] Creating Layer pool1
I0414 09:55:02.107930  1901 net.cpp:434] pool1 <- conv1
I0414 09:55:02.107934  1901 net.cpp:408] pool1 -> pool1
I0414 09:55:02.107971  1901 net.cpp:150] Setting up pool1
I0414 09:55:02.107976  1901 net.cpp:157] Top shape: 32 64 56 56 (6422528)
I0414 09:55:02.107978  1901 net.cpp:165] Memory required for data: 455999616
I0414 09:55:02.107981  1901 layer_factory.hpp:77] Creating layer pool1_pool1_0_split
I0414 09:55:02.107985  1901 net.cpp:100] Creating Layer pool1_pool1_0_split
I0414 09:55:02.107988  1901 net.cpp:434] pool1_pool1_0_split <- pool1
I0414 09:55:02.107992  1901 net.cpp:408] pool1_pool1_0_split -> pool1_pool1_0_split_0
I0414 09:55:02.107997  1901 net.cpp:408] pool1_pool1_0_split -> pool1_pool1_0_split_1
I0414 09:55:02.108019  1901 net.cpp:150] Setting up pool1_pool1_0_split
I0414 09:55:02.108023  1901 net.cpp:157] Top shape: 32 64 56 56 (6422528)
I0414 09:55:02.108026  1901 net.cpp:157] Top shape: 32 64 56 56 (6422528)
I0414 09:55:02.108029  1901 net.cpp:165] Memory required for data: 507379840
I0414 09:55:02.108031  1901 layer_factory.hpp:77] Creating layer res2a_branch1
I0414 09:55:02.108039  1901 net.cpp:100] Creating Layer res2a_branch1
I0414 09:55:02.108042  1901 net.cpp:434] res2a_branch1 <- pool1_pool1_0_split_0
I0414 09:55:02.108045  1901 net.cpp:408] res2a_branch1 -> res2a_branch1
I0414 09:55:02.109269  1901 net.cpp:150] Setting up res2a_branch1
I0414 09:55:02.109282  1901 net.cpp:157] Top shape: 32 256 56 56 (25690112)
I0414 09:55:02.109284  1901 net.cpp:165] Memory required for data: 610140288
I0414 09:55:02.109289  1901 layer_factory.hpp:77] Creating layer bn2a_branch1
I0414 09:55:02.109297  1901 net.cpp:100] Creating Layer bn2a_branch1
I0414 09:55:02.109299  1901 net.cpp:434] bn2a_branch1 <- res2a_branch1
I0414 09:55:02.109303  1901 net.cpp:395] bn2a_branch1 -> res2a_branch1 (in-place)
I0414 09:55:02.110608  1901 net.cpp:150] Setting up bn2a_branch1
I0414 09:55:02.110620  1901 net.cpp:157] Top shape: 32 256 56 56 (25690112)
I0414 09:55:02.110622  1901 net.cpp:165] Memory required for data: 712900736
I0414 09:55:02.110631  1901 layer_factory.hpp:77] Creating layer scale2a_branch1
I0414 09:55:02.110638  1901 net.cpp:100] Creating Layer scale2a_branch1
I0414 09:55:02.110641  1901 net.cpp:434] scale2a_branch1 <- res2a_branch1
I0414 09:55:02.110648  1901 net.cpp:395] scale2a_branch1 -> res2a_branch1 (in-place)
I0414 09:55:02.110693  1901 layer_factory.hpp:77] Creating layer scale2a_branch1
I0414 09:55:02.110767  1901 net.cpp:150] Setting up scale2a_branch1
I0414 09:55:02.110772  1901 net.cpp:157] Top shape: 32 256 56 56 (25690112)
I0414 09:55:02.110775  1901 net.cpp:165] Memory required for data: 815661184
I0414 09:55:02.110780  1901 layer_factory.hpp:77] Creating layer res2a_branch2a
I0414 09:55:02.110787  1901 net.cpp:100] Creating Layer res2a_branch2a
I0414 09:55:02.110790  1901 net.cpp:434] res2a_branch2a <- pool1_pool1_0_split_1
I0414 09:55:02.110795  1901 net.cpp:408] res2a_branch2a -> res2a_branch2a
I0414 09:55:02.111975  1901 net.cpp:150] Setting up res2a_branch2a
I0414 09:55:02.111987  1901 net.cpp:157] Top shape: 32 64 56 56 (6422528)
I0414 09:55:02.111990  1901 net.cpp:165] Memory required for data: 841351296
I0414 09:55:02.111994  1901 layer_factory.hpp:77] Creating layer bn2a_branch2a
I0414 09:55:02.112000  1901 net.cpp:100] Creating Layer bn2a_branch2a
I0414 09:55:02.112004  1901 net.cpp:434] bn2a_branch2a <- res2a_branch2a
I0414 09:55:02.112009  1901 net.cpp:395] bn2a_branch2a -> res2a_branch2a (in-place)
I0414 09:55:02.112134  1901 net.cpp:150] Setting up bn2a_branch2a
I0414 09:55:02.112140  1901 net.cpp:157] Top shape: 32 64 56 56 (6422528)
I0414 09:55:02.112143  1901 net.cpp:165] Memory required for data: 867041408
I0414 09:55:02.112151  1901 layer_factory.hpp:77] Creating layer scale2a_branch2a
I0414 09:55:02.112156  1901 net.cpp:100] Creating Layer scale2a_branch2a
I0414 09:55:02.112159  1901 net.cpp:434] scale2a_branch2a <- res2a_branch2a
I0414 09:55:02.112162  1901 net.cpp:395] scale2a_branch2a -> res2a_branch2a (in-place)
I0414 09:55:02.112190  1901 layer_factory.hpp:77] Creating layer scale2a_branch2a
I0414 09:55:02.112313  1901 net.cpp:150] Setting up scale2a_branch2a
I0414 09:55:02.112320  1901 net.cpp:157] Top shape: 32 64 56 56 (6422528)
I0414 09:55:02.112323  1901 net.cpp:165] Memory required for data: 892731520
I0414 09:55:02.112327  1901 layer_factory.hpp:77] Creating layer res2a_branch2a_relu
I0414 09:55:02.112332  1901 net.cpp:100] Creating Layer res2a_branch2a_relu
I0414 09:55:02.112336  1901 net.cpp:434] res2a_branch2a_relu <- res2a_branch2a
I0414 09:55:02.112340  1901 net.cpp:395] res2a_branch2a_relu -> res2a_branch2a (in-place)
I0414 09:55:02.112471  1901 net.cpp:150] Setting up res2a_branch2a_relu
I0414 09:55:02.112478  1901 net.cpp:157] Top shape: 32 64 56 56 (6422528)
I0414 09:55:02.112481  1901 net.cpp:165] Memory required for data: 918421632
I0414 09:55:02.112484  1901 layer_factory.hpp:77] Creating layer res2a_branch2b
I0414 09:55:02.112491  1901 net.cpp:100] Creating Layer res2a_branch2b
I0414 09:55:02.112494  1901 net.cpp:434] res2a_branch2b <- res2a_branch2a
I0414 09:55:02.112499  1901 net.cpp:408] res2a_branch2b -> res2a_branch2b
I0414 09:55:02.114828  1901 net.cpp:150] Setting up res2a_branch2b
I0414 09:55:02.114840  1901 net.cpp:157] Top shape: 32 64 56 56 (6422528)
I0414 09:55:02.114843  1901 net.cpp:165] Memory required for data: 944111744
I0414 09:55:02.114848  1901 layer_factory.hpp:77] Creating layer bn2a_branch2b
I0414 09:55:02.114855  1901 net.cpp:100] Creating Layer bn2a_branch2b
I0414 09:55:02.114857  1901 net.cpp:434] bn2a_branch2b <- res2a_branch2b
I0414 09:55:02.114861  1901 net.cpp:395] bn2a_branch2b -> res2a_branch2b (in-place)
I0414 09:55:02.114998  1901 net.cpp:150] Setting up bn2a_branch2b
I0414 09:55:02.115003  1901 net.cpp:157] Top shape: 32 64 56 56 (6422528)
I0414 09:55:02.115006  1901 net.cpp:165] Memory required for data: 969801856
I0414 09:55:02.115012  1901 layer_factory.hpp:77] Creating layer scale2a_branch2b
I0414 09:55:02.115020  1901 net.cpp:100] Creating Layer scale2a_branch2b
I0414 09:55:02.115022  1901 net.cpp:434] scale2a_branch2b <- res2a_branch2b
I0414 09:55:02.115026  1901 net.cpp:395] scale2a_branch2b -> res2a_branch2b (in-place)
I0414 09:55:02.115054  1901 layer_factory.hpp:77] Creating layer scale2a_branch2b
I0414 09:55:02.115133  1901 net.cpp:150] Setting up scale2a_branch2b
I0414 09:55:02.115141  1901 net.cpp:157] Top shape: 32 64 56 56 (6422528)
I0414 09:55:02.115154  1901 net.cpp:165] Memory required for data: 995491968
I0414 09:55:02.115160  1901 layer_factory.hpp:77] Creating layer res2a_branch2b_relu
I0414 09:55:02.115165  1901 net.cpp:100] Creating Layer res2a_branch2b_relu
I0414 09:55:02.115167  1901 net.cpp:434] res2a_branch2b_relu <- res2a_branch2b
I0414 09:55:02.115171  1901 net.cpp:395] res2a_branch2b_relu -> res2a_branch2b (in-place)
I0414 09:55:02.115291  1901 net.cpp:150] Setting up res2a_branch2b_relu
I0414 09:55:02.115298  1901 net.cpp:157] Top shape: 32 64 56 56 (6422528)
I0414 09:55:02.115300  1901 net.cpp:165] Memory required for data: 1021182080
I0414 09:55:02.115303  1901 layer_factory.hpp:77] Creating layer res2a_branch2c
I0414 09:55:02.115310  1901 net.cpp:100] Creating Layer res2a_branch2c
I0414 09:55:02.115312  1901 net.cpp:434] res2a_branch2c <- res2a_branch2b
I0414 09:55:02.115317  1901 net.cpp:408] res2a_branch2c -> res2a_branch2c
I0414 09:55:02.116520  1901 net.cpp:150] Setting up res2a_branch2c
I0414 09:55:02.116533  1901 net.cpp:157] Top shape: 32 256 56 56 (25690112)
I0414 09:55:02.116551  1901 net.cpp:165] Memory required for data: 1123942528
I0414 09:55:02.116556  1901 layer_factory.hpp:77] Creating layer bn2a_branch2c
I0414 09:55:02.116561  1901 net.cpp:100] Creating Layer bn2a_branch2c
I0414 09:55:02.116564  1901 net.cpp:434] bn2a_branch2c <- res2a_branch2c
I0414 09:55:02.116569  1901 net.cpp:395] bn2a_branch2c -> res2a_branch2c (in-place)
I0414 09:55:02.116696  1901 net.cpp:150] Setting up bn2a_branch2c
I0414 09:55:02.116701  1901 net.cpp:157] Top shape: 32 256 56 56 (25690112)
I0414 09:55:02.116704  1901 net.cpp:165] Memory required for data: 1226702976
I0414 09:55:02.116710  1901 layer_factory.hpp:77] Creating layer scale2a_branch2c
I0414 09:55:02.116715  1901 net.cpp:100] Creating Layer scale2a_branch2c
I0414 09:55:02.116719  1901 net.cpp:434] scale2a_branch2c <- res2a_branch2c
I0414 09:55:02.116722  1901 net.cpp:395] scale2a_branch2c -> res2a_branch2c (in-place)
I0414 09:55:02.116750  1901 layer_factory.hpp:77] Creating layer scale2a_branch2c
I0414 09:55:02.116822  1901 net.cpp:150] Setting up scale2a_branch2c
I0414 09:55:02.116828  1901 net.cpp:157] Top shape: 32 256 56 56 (25690112)
I0414 09:55:02.116830  1901 net.cpp:165] Memory required for data: 1329463424
I0414 09:55:02.116835  1901 layer_factory.hpp:77] Creating layer res2a
I0414 09:55:02.116840  1901 net.cpp:100] Creating Layer res2a
I0414 09:55:02.116843  1901 net.cpp:434] res2a <- res2a_branch1
I0414 09:55:02.116847  1901 net.cpp:434] res2a <- res2a_branch2c
I0414 09:55:02.116850  1901 net.cpp:408] res2a -> res2a
I0414 09:55:02.116875  1901 net.cpp:150] Setting up res2a
I0414 09:55:02.116880  1901 net.cpp:157] Top shape: 32 256 56 56 (25690112)
I0414 09:55:02.116883  1901 net.cpp:165] Memory required for data: 1432223872
I0414 09:55:02.116886  1901 layer_factory.hpp:77] Creating layer res2a_relu
I0414 09:55:02.116890  1901 net.cpp:100] Creating Layer res2a_relu
I0414 09:55:02.116894  1901 net.cpp:434] res2a_relu <- res2a
I0414 09:55:02.116896  1901 net.cpp:395] res2a_relu -> res2a (in-place)
I0414 09:55:02.117702  1901 net.cpp:150] Setting up res2a_relu
I0414 09:55:02.117713  1901 net.cpp:157] Top shape: 32 256 56 56 (25690112)
I0414 09:55:02.117717  1901 net.cpp:165] Memory required for data: 1534984320
I0414 09:55:02.117719  1901 layer_factory.hpp:77] Creating layer res2a_res2a_relu_0_split
I0414 09:55:02.117724  1901 net.cpp:100] Creating Layer res2a_res2a_relu_0_split
I0414 09:55:02.117727  1901 net.cpp:434] res2a_res2a_relu_0_split <- res2a
I0414 09:55:02.117732  1901 net.cpp:408] res2a_res2a_relu_0_split -> res2a_res2a_relu_0_split_0
I0414 09:55:02.117736  1901 net.cpp:408] res2a_res2a_relu_0_split -> res2a_res2a_relu_0_split_1
I0414 09:55:02.117766  1901 net.cpp:150] Setting up res2a_res2a_relu_0_split
I0414 09:55:02.117771  1901 net.cpp:157] Top shape: 32 256 56 56 (25690112)
I0414 09:55:02.117774  1901 net.cpp:157] Top shape: 32 256 56 56 (25690112)
I0414 09:55:02.117779  1901 net.cpp:165] Memory required for data: 1740505216
I0414 09:55:02.117782  1901 layer_factory.hpp:77] Creating layer res2b_branch2a
I0414 09:55:02.117799  1901 net.cpp:100] Creating Layer res2b_branch2a
I0414 09:55:02.117804  1901 net.cpp:434] res2b_branch2a <- res2a_res2a_relu_0_split_0
I0414 09:55:02.117807  1901 net.cpp:408] res2b_branch2a -> res2b_branch2a
I0414 09:55:02.118998  1901 net.cpp:150] Setting up res2b_branch2a
I0414 09:55:02.119009  1901 net.cpp:157] Top shape: 32 64 56 56 (6422528)
I0414 09:55:02.119011  1901 net.cpp:165] Memory required for data: 1766195328
I0414 09:55:02.119016  1901 layer_factory.hpp:77] Creating layer bn2b_branch2a
I0414 09:55:02.119021  1901 net.cpp:100] Creating Layer bn2b_branch2a
I0414 09:55:02.119025  1901 net.cpp:434] bn2b_branch2a <- res2b_branch2a
I0414 09:55:02.119029  1901 net.cpp:395] bn2b_branch2a -> res2b_branch2a (in-place)
I0414 09:55:02.119158  1901 net.cpp:150] Setting up bn2b_branch2a
I0414 09:55:02.119164  1901 net.cpp:157] Top shape: 32 64 56 56 (6422528)
I0414 09:55:02.119166  1901 net.cpp:165] Memory required for data: 1791885440
I0414 09:55:02.119175  1901 layer_factory.hpp:77] Creating layer scale2b_branch2a
I0414 09:55:02.119181  1901 net.cpp:100] Creating Layer scale2b_branch2a
I0414 09:55:02.119184  1901 net.cpp:434] scale2b_branch2a <- res2b_branch2a
I0414 09:55:02.119187  1901 net.cpp:395] scale2b_branch2a -> res2b_branch2a (in-place)
I0414 09:55:02.119215  1901 layer_factory.hpp:77] Creating layer scale2b_branch2a
I0414 09:55:02.119294  1901 net.cpp:150] Setting up scale2b_branch2a
I0414 09:55:02.119299  1901 net.cpp:157] Top shape: 32 64 56 56 (6422528)
I0414 09:55:02.119302  1901 net.cpp:165] Memory required for data: 1817575552
I0414 09:55:02.119307  1901 layer_factory.hpp:77] Creating layer res2b_branch2a_relu
I0414 09:55:02.119310  1901 net.cpp:100] Creating Layer res2b_branch2a_relu
I0414 09:55:02.119313  1901 net.cpp:434] res2b_branch2a_relu <- res2b_branch2a
I0414 09:55:02.119318  1901 net.cpp:395] res2b_branch2a_relu -> res2b_branch2a (in-place)
I0414 09:55:02.119437  1901 net.cpp:150] Setting up res2b_branch2a_relu
I0414 09:55:02.119443  1901 net.cpp:157] Top shape: 32 64 56 56 (6422528)
I0414 09:55:02.119446  1901 net.cpp:165] Memory required for data: 1843265664
I0414 09:55:02.119449  1901 layer_factory.hpp:77] Creating layer res2b_branch2b
I0414 09:55:02.119455  1901 net.cpp:100] Creating Layer res2b_branch2b
I0414 09:55:02.119457  1901 net.cpp:434] res2b_branch2b <- res2b_branch2a
I0414 09:55:02.119462  1901 net.cpp:408] res2b_branch2b -> res2b_branch2b
I0414 09:55:02.120743  1901 net.cpp:150] Setting up res2b_branch2b
I0414 09:55:02.120755  1901 net.cpp:157] Top shape: 32 64 56 56 (6422528)
I0414 09:55:02.120757  1901 net.cpp:165] Memory required for data: 1868955776
I0414 09:55:02.120762  1901 layer_factory.hpp:77] Creating layer bn2b_branch2b
I0414 09:55:02.120769  1901 net.cpp:100] Creating Layer bn2b_branch2b
I0414 09:55:02.120771  1901 net.cpp:434] bn2b_branch2b <- res2b_branch2b
I0414 09:55:02.120777  1901 net.cpp:395] bn2b_branch2b -> res2b_branch2b (in-place)
I0414 09:55:02.120924  1901 net.cpp:150] Setting up bn2b_branch2b
I0414 09:55:02.120929  1901 net.cpp:157] Top shape: 32 64 56 56 (6422528)
I0414 09:55:02.120932  1901 net.cpp:165] Memory required for data: 1894645888
I0414 09:55:02.120939  1901 layer_factory.hpp:77] Creating layer scale2b_branch2b
I0414 09:55:02.120944  1901 net.cpp:100] Creating Layer scale2b_branch2b
I0414 09:55:02.120945  1901 net.cpp:434] scale2b_branch2b <- res2b_branch2b
I0414 09:55:02.120951  1901 net.cpp:395] scale2b_branch2b -> res2b_branch2b (in-place)
I0414 09:55:02.120980  1901 layer_factory.hpp:77] Creating layer scale2b_branch2b
I0414 09:55:02.121068  1901 net.cpp:150] Setting up scale2b_branch2b
I0414 09:55:02.121073  1901 net.cpp:157] Top shape: 32 64 56 56 (6422528)
I0414 09:55:02.121076  1901 net.cpp:165] Memory required for data: 1920336000
I0414 09:55:02.121080  1901 layer_factory.hpp:77] Creating layer res2b_branch2b_relu
I0414 09:55:02.121085  1901 net.cpp:100] Creating Layer res2b_branch2b_relu
I0414 09:55:02.121091  1901 net.cpp:434] res2b_branch2b_relu <- res2b_branch2b
I0414 09:55:02.121109  1901 net.cpp:395] res2b_branch2b_relu -> res2b_branch2b (in-place)
I0414 09:55:02.121240  1901 net.cpp:150] Setting up res2b_branch2b_relu
I0414 09:55:02.121248  1901 net.cpp:157] Top shape: 32 64 56 56 (6422528)
I0414 09:55:02.121250  1901 net.cpp:165] Memory required for data: 1946026112
I0414 09:55:02.121253  1901 layer_factory.hpp:77] Creating layer res2b_branch2c
I0414 09:55:02.121264  1901 net.cpp:100] Creating Layer res2b_branch2c
I0414 09:55:02.121268  1901 net.cpp:434] res2b_branch2c <- res2b_branch2b
I0414 09:55:02.121273  1901 net.cpp:408] res2b_branch2c -> res2b_branch2c
I0414 09:55:02.122534  1901 net.cpp:150] Setting up res2b_branch2c
I0414 09:55:02.122545  1901 net.cpp:157] Top shape: 32 256 56 56 (25690112)
I0414 09:55:02.122547  1901 net.cpp:165] Memory required for data: 2048786560
I0414 09:55:02.122552  1901 layer_factory.hpp:77] Creating layer bn2b_branch2c
I0414 09:55:02.122560  1901 net.cpp:100] Creating Layer bn2b_branch2c
I0414 09:55:02.122563  1901 net.cpp:434] bn2b_branch2c <- res2b_branch2c
I0414 09:55:02.122567  1901 net.cpp:395] bn2b_branch2c -> res2b_branch2c (in-place)
I0414 09:55:02.122704  1901 net.cpp:150] Setting up bn2b_branch2c
I0414 09:55:02.122709  1901 net.cpp:157] Top shape: 32 256 56 56 (25690112)
I0414 09:55:02.122712  1901 net.cpp:165] Memory required for data: 2151547008
I0414 09:55:02.122717  1901 layer_factory.hpp:77] Creating layer scale2b_branch2c
I0414 09:55:02.122725  1901 net.cpp:100] Creating Layer scale2b_branch2c
I0414 09:55:02.122727  1901 net.cpp:434] scale2b_branch2c <- res2b_branch2c
I0414 09:55:02.122731  1901 net.cpp:395] scale2b_branch2c -> res2b_branch2c (in-place)
I0414 09:55:02.122761  1901 layer_factory.hpp:77] Creating layer scale2b_branch2c
I0414 09:55:02.122848  1901 net.cpp:150] Setting up scale2b_branch2c
I0414 09:55:02.122853  1901 net.cpp:157] Top shape: 32 256 56 56 (25690112)
I0414 09:55:02.122855  1901 net.cpp:165] Memory required for data: 2254307456
I0414 09:55:02.122860  1901 layer_factory.hpp:77] Creating layer res2b
I0414 09:55:02.122866  1901 net.cpp:100] Creating Layer res2b
I0414 09:55:02.122869  1901 net.cpp:434] res2b <- res2a_res2a_relu_0_split_1
I0414 09:55:02.122872  1901 net.cpp:434] res2b <- res2b_branch2c
I0414 09:55:02.122876  1901 net.cpp:408] res2b -> res2b
I0414 09:55:02.122897  1901 net.cpp:150] Setting up res2b
I0414 09:55:02.122902  1901 net.cpp:157] Top shape: 32 256 56 56 (25690112)
I0414 09:55:02.122905  1901 net.cpp:165] Memory required for data: 2357067904
I0414 09:55:02.122907  1901 layer_factory.hpp:77] Creating layer res2b_relu
I0414 09:55:02.122911  1901 net.cpp:100] Creating Layer res2b_relu
I0414 09:55:02.122915  1901 net.cpp:434] res2b_relu <- res2b
I0414 09:55:02.122920  1901 net.cpp:395] res2b_relu -> res2b (in-place)
I0414 09:55:02.123051  1901 net.cpp:150] Setting up res2b_relu
I0414 09:55:02.123057  1901 net.cpp:157] Top shape: 32 256 56 56 (25690112)
I0414 09:55:02.123060  1901 net.cpp:165] Memory required for data: 2459828352
I0414 09:55:02.123062  1901 layer_factory.hpp:77] Creating layer res2b_res2b_relu_0_split
I0414 09:55:02.123069  1901 net.cpp:100] Creating Layer res2b_res2b_relu_0_split
I0414 09:55:02.123071  1901 net.cpp:434] res2b_res2b_relu_0_split <- res2b
I0414 09:55:02.123075  1901 net.cpp:408] res2b_res2b_relu_0_split -> res2b_res2b_relu_0_split_0
I0414 09:55:02.123081  1901 net.cpp:408] res2b_res2b_relu_0_split -> res2b_res2b_relu_0_split_1
I0414 09:55:02.123109  1901 net.cpp:150] Setting up res2b_res2b_relu_0_split
I0414 09:55:02.123114  1901 net.cpp:157] Top shape: 32 256 56 56 (25690112)
I0414 09:55:02.123117  1901 net.cpp:157] Top shape: 32 256 56 56 (25690112)
I0414 09:55:02.123119  1901 net.cpp:165] Memory required for data: 2665349248
I0414 09:55:02.123122  1901 layer_factory.hpp:77] Creating layer res2c_branch2a
I0414 09:55:02.123131  1901 net.cpp:100] Creating Layer res2c_branch2a
I0414 09:55:02.123133  1901 net.cpp:434] res2c_branch2a <- res2b_res2b_relu_0_split_0
I0414 09:55:02.123141  1901 net.cpp:408] res2c_branch2a -> res2c_branch2a
I0414 09:55:02.124445  1901 net.cpp:150] Setting up res2c_branch2a
I0414 09:55:02.124456  1901 net.cpp:157] Top shape: 32 64 56 56 (6422528)
I0414 09:55:02.124461  1901 net.cpp:165] Memory required for data: 2691039360
I0414 09:55:02.124466  1901 layer_factory.hpp:77] Creating layer bn2c_branch2a
I0414 09:55:02.124472  1901 net.cpp:100] Creating Layer bn2c_branch2a
I0414 09:55:02.124475  1901 net.cpp:434] bn2c_branch2a <- res2c_branch2a
I0414 09:55:02.124480  1901 net.cpp:395] bn2c_branch2a -> res2c_branch2a (in-place)
I0414 09:55:02.124649  1901 net.cpp:150] Setting up bn2c_branch2a
I0414 09:55:02.124655  1901 net.cpp:157] Top shape: 32 64 56 56 (6422528)
I0414 09:55:02.124657  1901 net.cpp:165] Memory required for data: 2716729472
I0414 09:55:02.124663  1901 layer_factory.hpp:77] Creating layer scale2c_branch2a
I0414 09:55:02.124667  1901 net.cpp:100] Creating Layer scale2c_branch2a
I0414 09:55:02.124670  1901 net.cpp:434] scale2c_branch2a <- res2c_branch2a
I0414 09:55:02.124675  1901 net.cpp:395] scale2c_branch2a -> res2c_branch2a (in-place)
I0414 09:55:02.124706  1901 layer_factory.hpp:77] Creating layer scale2c_branch2a
I0414 09:55:02.124794  1901 net.cpp:150] Setting up scale2c_branch2a
I0414 09:55:02.124799  1901 net.cpp:157] Top shape: 32 64 56 56 (6422528)
I0414 09:55:02.124801  1901 net.cpp:165] Memory required for data: 2742419584
I0414 09:55:02.124806  1901 layer_factory.hpp:77] Creating layer res2c_branch2a_relu
I0414 09:55:02.124810  1901 net.cpp:100] Creating Layer res2c_branch2a_relu
I0414 09:55:02.124814  1901 net.cpp:434] res2c_branch2a_relu <- res2c_branch2a
I0414 09:55:02.124816  1901 net.cpp:395] res2c_branch2a_relu -> res2c_branch2a (in-place)
I0414 09:55:02.124954  1901 net.cpp:150] Setting up res2c_branch2a_relu
I0414 09:55:02.124961  1901 net.cpp:157] Top shape: 32 64 56 56 (6422528)
I0414 09:55:02.124963  1901 net.cpp:165] Memory required for data: 2768109696
I0414 09:55:02.124966  1901 layer_factory.hpp:77] Creating layer res2c_branch2b
I0414 09:55:02.124974  1901 net.cpp:100] Creating Layer res2c_branch2b
I0414 09:55:02.124977  1901 net.cpp:434] res2c_branch2b <- res2c_branch2a
I0414 09:55:02.124981  1901 net.cpp:408] res2c_branch2b -> res2c_branch2b
I0414 09:55:02.126237  1901 net.cpp:150] Setting up res2c_branch2b
I0414 09:55:02.126248  1901 net.cpp:157] Top shape: 32 64 56 56 (6422528)
I0414 09:55:02.126251  1901 net.cpp:165] Memory required for data: 2793799808
I0414 09:55:02.126255  1901 layer_factory.hpp:77] Creating layer bn2c_branch2b
I0414 09:55:02.126263  1901 net.cpp:100] Creating Layer bn2c_branch2b
I0414 09:55:02.126267  1901 net.cpp:434] bn2c_branch2b <- res2c_branch2b
I0414 09:55:02.126272  1901 net.cpp:395] bn2c_branch2b -> res2c_branch2b (in-place)
I0414 09:55:02.126422  1901 net.cpp:150] Setting up bn2c_branch2b
I0414 09:55:02.126428  1901 net.cpp:157] Top shape: 32 64 56 56 (6422528)
I0414 09:55:02.126431  1901 net.cpp:165] Memory required for data: 2819489920
I0414 09:55:02.126437  1901 layer_factory.hpp:77] Creating layer scale2c_branch2b
I0414 09:55:02.126443  1901 net.cpp:100] Creating Layer scale2c_branch2b
I0414 09:55:02.126446  1901 net.cpp:434] scale2c_branch2b <- res2c_branch2b
I0414 09:55:02.126451  1901 net.cpp:395] scale2c_branch2b -> res2c_branch2b (in-place)
I0414 09:55:02.126480  1901 layer_factory.hpp:77] Creating layer scale2c_branch2b
I0414 09:55:02.126572  1901 net.cpp:150] Setting up scale2c_branch2b
I0414 09:55:02.126577  1901 net.cpp:157] Top shape: 32 64 56 56 (6422528)
I0414 09:55:02.126579  1901 net.cpp:165] Memory required for data: 2845180032
I0414 09:55:02.126585  1901 layer_factory.hpp:77] Creating layer res2c_branch2b_relu
I0414 09:55:02.126590  1901 net.cpp:100] Creating Layer res2c_branch2b_relu
I0414 09:55:02.126591  1901 net.cpp:434] res2c_branch2b_relu <- res2c_branch2b
I0414 09:55:02.126597  1901 net.cpp:395] res2c_branch2b_relu -> res2c_branch2b (in-place)
I0414 09:55:02.126725  1901 net.cpp:150] Setting up res2c_branch2b_relu
I0414 09:55:02.126732  1901 net.cpp:157] Top shape: 32 64 56 56 (6422528)
I0414 09:55:02.126739  1901 net.cpp:165] Memory required for data: 2870870144
I0414 09:55:02.126754  1901 layer_factory.hpp:77] Creating layer res2c_branch2c
I0414 09:55:02.126761  1901 net.cpp:100] Creating Layer res2c_branch2c
I0414 09:55:02.126765  1901 net.cpp:434] res2c_branch2c <- res2c_branch2b
I0414 09:55:02.126770  1901 net.cpp:408] res2c_branch2c -> res2c_branch2c
I0414 09:55:02.128027  1901 net.cpp:150] Setting up res2c_branch2c
I0414 09:55:02.128041  1901 net.cpp:157] Top shape: 32 256 56 56 (25690112)
I0414 09:55:02.128043  1901 net.cpp:165] Memory required for data: 2973630592
I0414 09:55:02.128048  1901 layer_factory.hpp:77] Creating layer bn2c_branch2c
I0414 09:55:02.128053  1901 net.cpp:100] Creating Layer bn2c_branch2c
I0414 09:55:02.128057  1901 net.cpp:434] bn2c_branch2c <- res2c_branch2c
I0414 09:55:02.128062  1901 net.cpp:395] bn2c_branch2c -> res2c_branch2c (in-place)
I0414 09:55:02.128211  1901 net.cpp:150] Setting up bn2c_branch2c
I0414 09:55:02.128240  1901 net.cpp:157] Top shape: 32 256 56 56 (25690112)
I0414 09:55:02.128243  1901 net.cpp:165] Memory required for data: 3076391040
I0414 09:55:02.128257  1901 layer_factory.hpp:77] Creating layer scale2c_branch2c
I0414 09:55:02.128263  1901 net.cpp:100] Creating Layer scale2c_branch2c
I0414 09:55:02.128267  1901 net.cpp:434] scale2c_branch2c <- res2c_branch2c
I0414 09:55:02.128270  1901 net.cpp:395] scale2c_branch2c -> res2c_branch2c (in-place)
I0414 09:55:02.128307  1901 layer_factory.hpp:77] Creating layer scale2c_branch2c
I0414 09:55:02.128398  1901 net.cpp:150] Setting up scale2c_branch2c
I0414 09:55:02.128403  1901 net.cpp:157] Top shape: 32 256 56 56 (25690112)
I0414 09:55:02.128407  1901 net.cpp:165] Memory required for data: 3179151488
I0414 09:55:02.128412  1901 layer_factory.hpp:77] Creating layer res2c
I0414 09:55:02.128417  1901 net.cpp:100] Creating Layer res2c
I0414 09:55:02.128420  1901 net.cpp:434] res2c <- res2b_res2b_relu_0_split_1
I0414 09:55:02.128424  1901 net.cpp:434] res2c <- res2c_branch2c
I0414 09:55:02.128428  1901 net.cpp:408] res2c -> res2c
I0414 09:55:02.128448  1901 net.cpp:150] Setting up res2c
I0414 09:55:02.128453  1901 net.cpp:157] Top shape: 32 256 56 56 (25690112)
I0414 09:55:02.128455  1901 net.cpp:165] Memory required for data: 3281911936
I0414 09:55:02.128458  1901 layer_factory.hpp:77] Creating layer res2c_relu
I0414 09:55:02.128463  1901 net.cpp:100] Creating Layer res2c_relu
I0414 09:55:02.128465  1901 net.cpp:434] res2c_relu <- res2c
I0414 09:55:02.128471  1901 net.cpp:395] res2c_relu -> res2c (in-place)
I0414 09:55:02.129319  1901 net.cpp:150] Setting up res2c_relu
I0414 09:55:02.129333  1901 net.cpp:157] Top shape: 32 256 56 56 (25690112)
I0414 09:55:02.129335  1901 net.cpp:165] Memory required for data: 3384672384
I0414 09:55:02.129338  1901 layer_factory.hpp:77] Creating layer res2c_res2c_relu_0_split
I0414 09:55:02.129343  1901 net.cpp:100] Creating Layer res2c_res2c_relu_0_split
I0414 09:55:02.129346  1901 net.cpp:434] res2c_res2c_relu_0_split <- res2c
I0414 09:55:02.129350  1901 net.cpp:408] res2c_res2c_relu_0_split -> res2c_res2c_relu_0_split_0
I0414 09:55:02.129355  1901 net.cpp:408] res2c_res2c_relu_0_split -> res2c_res2c_relu_0_split_1
I0414 09:55:02.129390  1901 net.cpp:150] Setting up res2c_res2c_relu_0_split
I0414 09:55:02.129395  1901 net.cpp:157] Top shape: 32 256 56 56 (25690112)
I0414 09:55:02.129397  1901 net.cpp:157] Top shape: 32 256 56 56 (25690112)
I0414 09:55:02.129400  1901 net.cpp:165] Memory required for data: 3590193280
I0414 09:55:02.129402  1901 layer_factory.hpp:77] Creating layer res3a_branch1
I0414 09:55:02.129410  1901 net.cpp:100] Creating Layer res3a_branch1
I0414 09:55:02.129412  1901 net.cpp:434] res3a_branch1 <- res2c_res2c_relu_0_split_0
I0414 09:55:02.129417  1901 net.cpp:408] res3a_branch1 -> res3a_branch1
I0414 09:55:02.130760  1901 net.cpp:150] Setting up res3a_branch1
I0414 09:55:02.130771  1901 net.cpp:157] Top shape: 32 512 28 28 (12845056)
I0414 09:55:02.130774  1901 net.cpp:165] Memory required for data: 3641573504
I0414 09:55:02.130782  1901 layer_factory.hpp:77] Creating layer bn3a_branch1
I0414 09:55:02.130800  1901 net.cpp:100] Creating Layer bn3a_branch1
I0414 09:55:02.130805  1901 net.cpp:434] bn3a_branch1 <- res3a_branch1
I0414 09:55:02.130810  1901 net.cpp:395] bn3a_branch1 -> res3a_branch1 (in-place)
I0414 09:55:02.132081  1901 net.cpp:150] Setting up bn3a_branch1
I0414 09:55:02.132092  1901 net.cpp:157] Top shape: 32 512 28 28 (12845056)
I0414 09:55:02.132095  1901 net.cpp:165] Memory required for data: 3692953728
I0414 09:55:02.132102  1901 layer_factory.hpp:77] Creating layer scale3a_branch1
I0414 09:55:02.132108  1901 net.cpp:100] Creating Layer scale3a_branch1
I0414 09:55:02.132112  1901 net.cpp:434] scale3a_branch1 <- res3a_branch1
I0414 09:55:02.132115  1901 net.cpp:395] scale3a_branch1 -> res3a_branch1 (in-place)
I0414 09:55:02.132153  1901 layer_factory.hpp:77] Creating layer scale3a_branch1
I0414 09:55:02.132262  1901 net.cpp:150] Setting up scale3a_branch1
I0414 09:55:02.132269  1901 net.cpp:157] Top shape: 32 512 28 28 (12845056)
I0414 09:55:02.132287  1901 net.cpp:165] Memory required for data: 3744333952
I0414 09:55:02.132292  1901 layer_factory.hpp:77] Creating layer res3a_branch2a
I0414 09:55:02.132302  1901 net.cpp:100] Creating Layer res3a_branch2a
I0414 09:55:02.132305  1901 net.cpp:434] res3a_branch2a <- res2c_res2c_relu_0_split_1
I0414 09:55:02.132309  1901 net.cpp:408] res3a_branch2a -> res3a_branch2a
I0414 09:55:02.132946  1901 net.cpp:150] Setting up res3a_branch2a
I0414 09:55:02.132953  1901 net.cpp:157] Top shape: 32 128 28 28 (3211264)
I0414 09:55:02.132956  1901 net.cpp:165] Memory required for data: 3757179008
I0414 09:55:02.132961  1901 layer_factory.hpp:77] Creating layer bn3a_branch2a
I0414 09:55:02.132969  1901 net.cpp:100] Creating Layer bn3a_branch2a
I0414 09:55:02.132972  1901 net.cpp:434] bn3a_branch2a <- res3a_branch2a
I0414 09:55:02.132977  1901 net.cpp:395] bn3a_branch2a -> res3a_branch2a (in-place)
I0414 09:55:02.133122  1901 net.cpp:150] Setting up bn3a_branch2a
I0414 09:55:02.133127  1901 net.cpp:157] Top shape: 32 128 28 28 (3211264)
I0414 09:55:02.133131  1901 net.cpp:165] Memory required for data: 3770024064
I0414 09:55:02.133136  1901 layer_factory.hpp:77] Creating layer scale3a_branch2a
I0414 09:55:02.133141  1901 net.cpp:100] Creating Layer scale3a_branch2a
I0414 09:55:02.133143  1901 net.cpp:434] scale3a_branch2a <- res3a_branch2a
I0414 09:55:02.133148  1901 net.cpp:395] scale3a_branch2a -> res3a_branch2a (in-place)
I0414 09:55:02.133177  1901 layer_factory.hpp:77] Creating layer scale3a_branch2a
I0414 09:55:02.133257  1901 net.cpp:150] Setting up scale3a_branch2a
I0414 09:55:02.133263  1901 net.cpp:157] Top shape: 32 128 28 28 (3211264)
I0414 09:55:02.133266  1901 net.cpp:165] Memory required for data: 3782869120
I0414 09:55:02.133270  1901 layer_factory.hpp:77] Creating layer res3a_branch2a_relu
I0414 09:55:02.133275  1901 net.cpp:100] Creating Layer res3a_branch2a_relu
I0414 09:55:02.133277  1901 net.cpp:434] res3a_branch2a_relu <- res3a_branch2a
I0414 09:55:02.133281  1901 net.cpp:395] res3a_branch2a_relu -> res3a_branch2a (in-place)
I0414 09:55:02.134101  1901 net.cpp:150] Setting up res3a_branch2a_relu
I0414 09:55:02.134112  1901 net.cpp:157] Top shape: 32 128 28 28 (3211264)
I0414 09:55:02.134114  1901 net.cpp:165] Memory required for data: 3795714176
I0414 09:55:02.134119  1901 layer_factory.hpp:77] Creating layer res3a_branch2b
I0414 09:55:02.134127  1901 net.cpp:100] Creating Layer res3a_branch2b
I0414 09:55:02.134131  1901 net.cpp:434] res3a_branch2b <- res3a_branch2a
I0414 09:55:02.134135  1901 net.cpp:408] res3a_branch2b -> res3a_branch2b
I0414 09:55:02.136278  1901 net.cpp:150] Setting up res3a_branch2b
I0414 09:55:02.136291  1901 net.cpp:157] Top shape: 32 128 28 28 (3211264)
I0414 09:55:02.136293  1901 net.cpp:165] Memory required for data: 3808559232
I0414 09:55:02.136298  1901 layer_factory.hpp:77] Creating layer bn3a_branch2b
I0414 09:55:02.136307  1901 net.cpp:100] Creating Layer bn3a_branch2b
I0414 09:55:02.136310  1901 net.cpp:434] bn3a_branch2b <- res3a_branch2b
I0414 09:55:02.136317  1901 net.cpp:395] bn3a_branch2b -> res3a_branch2b (in-place)
I0414 09:55:02.136492  1901 net.cpp:150] Setting up bn3a_branch2b
I0414 09:55:02.136499  1901 net.cpp:157] Top shape: 32 128 28 28 (3211264)
I0414 09:55:02.136502  1901 net.cpp:165] Memory required for data: 3821404288
I0414 09:55:02.136507  1901 layer_factory.hpp:77] Creating layer scale3a_branch2b
I0414 09:55:02.136513  1901 net.cpp:100] Creating Layer scale3a_branch2b
I0414 09:55:02.136517  1901 net.cpp:434] scale3a_branch2b <- res3a_branch2b
I0414 09:55:02.136538  1901 net.cpp:395] scale3a_branch2b -> res3a_branch2b (in-place)
I0414 09:55:02.136567  1901 layer_factory.hpp:77] Creating layer scale3a_branch2b
I0414 09:55:02.136654  1901 net.cpp:150] Setting up scale3a_branch2b
I0414 09:55:02.136659  1901 net.cpp:157] Top shape: 32 128 28 28 (3211264)
I0414 09:55:02.136662  1901 net.cpp:165] Memory required for data: 3834249344
I0414 09:55:02.136667  1901 layer_factory.hpp:77] Creating layer res3a_branch2b_relu
I0414 09:55:02.136673  1901 net.cpp:100] Creating Layer res3a_branch2b_relu
I0414 09:55:02.136675  1901 net.cpp:434] res3a_branch2b_relu <- res3a_branch2b
I0414 09:55:02.136679  1901 net.cpp:395] res3a_branch2b_relu -> res3a_branch2b (in-place)
I0414 09:55:02.136821  1901 net.cpp:150] Setting up res3a_branch2b_relu
I0414 09:55:02.136828  1901 net.cpp:157] Top shape: 32 128 28 28 (3211264)
I0414 09:55:02.136831  1901 net.cpp:165] Memory required for data: 3847094400
I0414 09:55:02.136834  1901 layer_factory.hpp:77] Creating layer res3a_branch2c
I0414 09:55:02.136840  1901 net.cpp:100] Creating Layer res3a_branch2c
I0414 09:55:02.136843  1901 net.cpp:434] res3a_branch2c <- res3a_branch2b
I0414 09:55:02.136849  1901 net.cpp:408] res3a_branch2c -> res3a_branch2c
I0414 09:55:02.138147  1901 net.cpp:150] Setting up res3a_branch2c
I0414 09:55:02.138159  1901 net.cpp:157] Top shape: 32 512 28 28 (12845056)
I0414 09:55:02.138161  1901 net.cpp:165] Memory required for data: 3898474624
I0414 09:55:02.138166  1901 layer_factory.hpp:77] Creating layer bn3a_branch2c
I0414 09:55:02.138180  1901 net.cpp:100] Creating Layer bn3a_branch2c
I0414 09:55:02.138183  1901 net.cpp:434] bn3a_branch2c <- res3a_branch2c
I0414 09:55:02.138187  1901 net.cpp:395] bn3a_branch2c -> res3a_branch2c (in-place)
I0414 09:55:02.138334  1901 net.cpp:150] Setting up bn3a_branch2c
I0414 09:55:02.138339  1901 net.cpp:157] Top shape: 32 512 28 28 (12845056)
I0414 09:55:02.138341  1901 net.cpp:165] Memory required for data: 3949854848
I0414 09:55:02.138348  1901 layer_factory.hpp:77] Creating layer scale3a_branch2c
I0414 09:55:02.138355  1901 net.cpp:100] Creating Layer scale3a_branch2c
I0414 09:55:02.138357  1901 net.cpp:434] scale3a_branch2c <- res3a_branch2c
I0414 09:55:02.138361  1901 net.cpp:395] scale3a_branch2c -> res3a_branch2c (in-place)
I0414 09:55:02.138393  1901 layer_factory.hpp:77] Creating layer scale3a_branch2c
I0414 09:55:02.138480  1901 net.cpp:150] Setting up scale3a_branch2c
I0414 09:55:02.138485  1901 net.cpp:157] Top shape: 32 512 28 28 (12845056)
I0414 09:55:02.138489  1901 net.cpp:165] Memory required for data: 4001235072
I0414 09:55:02.138492  1901 layer_factory.hpp:77] Creating layer res3a
I0414 09:55:02.138497  1901 net.cpp:100] Creating Layer res3a
I0414 09:55:02.138500  1901 net.cpp:434] res3a <- res3a_branch1
I0414 09:55:02.138504  1901 net.cpp:434] res3a <- res3a_branch2c
I0414 09:55:02.138509  1901 net.cpp:408] res3a -> res3a
I0414 09:55:02.138530  1901 net.cpp:150] Setting up res3a
I0414 09:55:02.138533  1901 net.cpp:157] Top shape: 32 512 28 28 (12845056)
I0414 09:55:02.138536  1901 net.cpp:165] Memory required for data: 4052615296
I0414 09:55:02.138538  1901 layer_factory.hpp:77] Creating layer res3a_relu
I0414 09:55:02.138542  1901 net.cpp:100] Creating Layer res3a_relu
I0414 09:55:02.138545  1901 net.cpp:434] res3a_relu <- res3a
I0414 09:55:02.138548  1901 net.cpp:395] res3a_relu -> res3a (in-place)
I0414 09:55:02.138697  1901 net.cpp:150] Setting up res3a_relu
I0414 09:55:02.138705  1901 net.cpp:157] Top shape: 32 512 28 28 (12845056)
I0414 09:55:02.138710  1901 net.cpp:165] Memory required for data: 4103995520
I0414 09:55:02.138723  1901 layer_factory.hpp:77] Creating layer res3a_res3a_relu_0_split
I0414 09:55:02.138728  1901 net.cpp:100] Creating Layer res3a_res3a_relu_0_split
I0414 09:55:02.138731  1901 net.cpp:434] res3a_res3a_relu_0_split <- res3a
I0414 09:55:02.138737  1901 net.cpp:408] res3a_res3a_relu_0_split -> res3a_res3a_relu_0_split_0
I0414 09:55:02.138742  1901 net.cpp:408] res3a_res3a_relu_0_split -> res3a_res3a_relu_0_split_1
I0414 09:55:02.138774  1901 net.cpp:150] Setting up res3a_res3a_relu_0_split
I0414 09:55:02.138779  1901 net.cpp:157] Top shape: 32 512 28 28 (12845056)
I0414 09:55:02.138782  1901 net.cpp:157] Top shape: 32 512 28 28 (12845056)
I0414 09:55:02.138784  1901 net.cpp:165] Memory required for data: 4206755968
I0414 09:55:02.138787  1901 layer_factory.hpp:77] Creating layer res3b_branch2a
I0414 09:55:02.138794  1901 net.cpp:100] Creating Layer res3b_branch2a
I0414 09:55:02.138797  1901 net.cpp:434] res3b_branch2a <- res3a_res3a_relu_0_split_0
I0414 09:55:02.138803  1901 net.cpp:408] res3b_branch2a -> res3b_branch2a
I0414 09:55:02.140895  1901 net.cpp:150] Setting up res3b_branch2a
I0414 09:55:02.140907  1901 net.cpp:157] Top shape: 32 128 28 28 (3211264)
I0414 09:55:02.140909  1901 net.cpp:165] Memory required for data: 4219601024
I0414 09:55:02.140914  1901 layer_factory.hpp:77] Creating layer bn3b_branch2a
I0414 09:55:02.140921  1901 net.cpp:100] Creating Layer bn3b_branch2a
I0414 09:55:02.140925  1901 net.cpp:434] bn3b_branch2a <- res3b_branch2a
I0414 09:55:02.140930  1901 net.cpp:395] bn3b_branch2a -> res3b_branch2a (in-place)
I0414 09:55:02.141080  1901 net.cpp:150] Setting up bn3b_branch2a
I0414 09:55:02.141086  1901 net.cpp:157] Top shape: 32 128 28 28 (3211264)
I0414 09:55:02.141089  1901 net.cpp:165] Memory required for data: 4232446080
I0414 09:55:02.141095  1901 layer_factory.hpp:77] Creating layer scale3b_branch2a
I0414 09:55:02.141101  1901 net.cpp:100] Creating Layer scale3b_branch2a
I0414 09:55:02.141104  1901 net.cpp:434] scale3b_branch2a <- res3b_branch2a
I0414 09:55:02.141109  1901 net.cpp:395] scale3b_branch2a -> res3b_branch2a (in-place)
I0414 09:55:02.141139  1901 layer_factory.hpp:77] Creating layer scale3b_branch2a
I0414 09:55:02.141229  1901 net.cpp:150] Setting up scale3b_branch2a
I0414 09:55:02.141234  1901 net.cpp:157] Top shape: 32 128 28 28 (3211264)
I0414 09:55:02.141237  1901 net.cpp:165] Memory required for data: 4245291136
I0414 09:55:02.141242  1901 layer_factory.hpp:77] Creating layer res3b_branch2a_relu
I0414 09:55:02.141247  1901 net.cpp:100] Creating Layer res3b_branch2a_relu
I0414 09:55:02.141248  1901 net.cpp:434] res3b_branch2a_relu <- res3b_branch2a
I0414 09:55:02.141252  1901 net.cpp:395] res3b_branch2a_relu -> res3b_branch2a (in-place)
I0414 09:55:02.142129  1901 net.cpp:150] Setting up res3b_branch2a_relu
I0414 09:55:02.142140  1901 net.cpp:157] Top shape: 32 128 28 28 (3211264)
I0414 09:55:02.142143  1901 net.cpp:165] Memory required for data: 4258136192
I0414 09:55:02.142146  1901 layer_factory.hpp:77] Creating layer res3b_branch2b
I0414 09:55:02.142154  1901 net.cpp:100] Creating Layer res3b_branch2b
I0414 09:55:02.142158  1901 net.cpp:434] res3b_branch2b <- res3b_branch2a
I0414 09:55:02.142161  1901 net.cpp:408] res3b_branch2b -> res3b_branch2b
I0414 09:55:02.145567  1901 net.cpp:150] Setting up res3b_branch2b
I0414 09:55:02.145579  1901 net.cpp:157] Top shape: 32 128 28 28 (3211264)
I0414 09:55:02.145582  1901 net.cpp:165] Memory required for data: 4270981248
I0414 09:55:02.145587  1901 layer_factory.hpp:77] Creating layer bn3b_branch2b
I0414 09:55:02.145593  1901 net.cpp:100] Creating Layer bn3b_branch2b
I0414 09:55:02.145596  1901 net.cpp:434] bn3b_branch2b <- res3b_branch2b
I0414 09:55:02.145602  1901 net.cpp:395] bn3b_branch2b -> res3b_branch2b (in-place)
I0414 09:55:02.145757  1901 net.cpp:150] Setting up bn3b_branch2b
I0414 09:55:02.145763  1901 net.cpp:157] Top shape: 32 128 28 28 (3211264)
I0414 09:55:02.145766  1901 net.cpp:165] Memory required for data: 4283826304
I0414 09:55:02.145776  1901 layer_factory.hpp:77] Creating layer scale3b_branch2b
I0414 09:55:02.145792  1901 net.cpp:100] Creating Layer scale3b_branch2b
I0414 09:55:02.145795  1901 net.cpp:434] scale3b_branch2b <- res3b_branch2b
I0414 09:55:02.145798  1901 net.cpp:395] scale3b_branch2b -> res3b_branch2b (in-place)
I0414 09:55:02.145834  1901 layer_factory.hpp:77] Creating layer scale3b_branch2b
I0414 09:55:02.145920  1901 net.cpp:150] Setting up scale3b_branch2b
I0414 09:55:02.145926  1901 net.cpp:157] Top shape: 32 128 28 28 (3211264)
I0414 09:55:02.145928  1901 net.cpp:165] Memory required for data: 4296671360
I0414 09:55:02.145933  1901 layer_factory.hpp:77] Creating layer res3b_branch2b_relu
I0414 09:55:02.145938  1901 net.cpp:100] Creating Layer res3b_branch2b_relu
I0414 09:55:02.145941  1901 net.cpp:434] res3b_branch2b_relu <- res3b_branch2b
I0414 09:55:02.145946  1901 net.cpp:395] res3b_branch2b_relu -> res3b_branch2b (in-place)
I0414 09:55:02.146083  1901 net.cpp:150] Setting up res3b_branch2b_relu
I0414 09:55:02.146090  1901 net.cpp:157] Top shape: 32 128 28 28 (3211264)
I0414 09:55:02.146092  1901 net.cpp:165] Memory required for data: 4309516416
I0414 09:55:02.146095  1901 layer_factory.hpp:77] Creating layer res3b_branch2c
I0414 09:55:02.146103  1901 net.cpp:100] Creating Layer res3b_branch2c
I0414 09:55:02.146106  1901 net.cpp:434] res3b_branch2c <- res3b_branch2b
I0414 09:55:02.146111  1901 net.cpp:408] res3b_branch2c -> res3b_branch2c
I0414 09:55:02.147423  1901 net.cpp:150] Setting up res3b_branch2c
I0414 09:55:02.147434  1901 net.cpp:157] Top shape: 32 512 28 28 (12845056)
I0414 09:55:02.147438  1901 net.cpp:165] Memory required for data: 4360896640
I0414 09:55:02.147441  1901 layer_factory.hpp:77] Creating layer bn3b_branch2c
I0414 09:55:02.147447  1901 net.cpp:100] Creating Layer bn3b_branch2c
I0414 09:55:02.147450  1901 net.cpp:434] bn3b_branch2c <- res3b_branch2c
I0414 09:55:02.147460  1901 net.cpp:395] bn3b_branch2c -> res3b_branch2c (in-place)
I0414 09:55:02.147611  1901 net.cpp:150] Setting up bn3b_branch2c
I0414 09:55:02.147616  1901 net.cpp:157] Top shape: 32 512 28 28 (12845056)
I0414 09:55:02.147619  1901 net.cpp:165] Memory required for data: 4412276864
I0414 09:55:02.147624  1901 layer_factory.hpp:77] Creating layer scale3b_branch2c
I0414 09:55:02.147629  1901 net.cpp:100] Creating Layer scale3b_branch2c
I0414 09:55:02.147632  1901 net.cpp:434] scale3b_branch2c <- res3b_branch2c
I0414 09:55:02.147636  1901 net.cpp:395] scale3b_branch2c -> res3b_branch2c (in-place)
I0414 09:55:02.147670  1901 layer_factory.hpp:77] Creating layer scale3b_branch2c
I0414 09:55:02.147754  1901 net.cpp:150] Setting up scale3b_branch2c
I0414 09:55:02.147759  1901 net.cpp:157] Top shape: 32 512 28 28 (12845056)
I0414 09:55:02.147761  1901 net.cpp:165] Memory required for data: 4463657088
I0414 09:55:02.147766  1901 layer_factory.hpp:77] Creating layer res3b
I0414 09:55:02.147770  1901 net.cpp:100] Creating Layer res3b
I0414 09:55:02.147773  1901 net.cpp:434] res3b <- res3a_res3a_relu_0_split_1
I0414 09:55:02.147776  1901 net.cpp:434] res3b <- res3b_branch2c
I0414 09:55:02.147783  1901 net.cpp:408] res3b -> res3b
I0414 09:55:02.147801  1901 net.cpp:150] Setting up res3b
I0414 09:55:02.147806  1901 net.cpp:157] Top shape: 32 512 28 28 (12845056)
I0414 09:55:02.147809  1901 net.cpp:165] Memory required for data: 4515037312
I0414 09:55:02.147811  1901 layer_factory.hpp:77] Creating layer res3b_relu
I0414 09:55:02.147817  1901 net.cpp:100] Creating Layer res3b_relu
I0414 09:55:02.147820  1901 net.cpp:434] res3b_relu <- res3b
I0414 09:55:02.147824  1901 net.cpp:395] res3b_relu -> res3b (in-place)
I0414 09:55:02.148707  1901 net.cpp:150] Setting up res3b_relu
I0414 09:55:02.148718  1901 net.cpp:157] Top shape: 32 512 28 28 (12845056)
I0414 09:55:02.148720  1901 net.cpp:165] Memory required for data: 4566417536
I0414 09:55:02.148725  1901 layer_factory.hpp:77] Creating layer res3b_res3b_relu_0_split
I0414 09:55:02.148730  1901 net.cpp:100] Creating Layer res3b_res3b_relu_0_split
I0414 09:55:02.148732  1901 net.cpp:434] res3b_res3b_relu_0_split <- res3b
I0414 09:55:02.148741  1901 net.cpp:408] res3b_res3b_relu_0_split -> res3b_res3b_relu_0_split_0
I0414 09:55:02.148759  1901 net.cpp:408] res3b_res3b_relu_0_split -> res3b_res3b_relu_0_split_1
I0414 09:55:02.148795  1901 net.cpp:150] Setting up res3b_res3b_relu_0_split
I0414 09:55:02.148800  1901 net.cpp:157] Top shape: 32 512 28 28 (12845056)
I0414 09:55:02.148803  1901 net.cpp:157] Top shape: 32 512 28 28 (12845056)
I0414 09:55:02.148805  1901 net.cpp:165] Memory required for data: 4669177984
I0414 09:55:02.148808  1901 layer_factory.hpp:77] Creating layer res3c_branch2a
I0414 09:55:02.148816  1901 net.cpp:100] Creating Layer res3c_branch2a
I0414 09:55:02.148819  1901 net.cpp:434] res3c_branch2a <- res3b_res3b_relu_0_split_0
I0414 09:55:02.148824  1901 net.cpp:408] res3c_branch2a -> res3c_branch2a
I0414 09:55:02.149423  1901 net.cpp:150] Setting up res3c_branch2a
I0414 09:55:02.149431  1901 net.cpp:157] Top shape: 32 128 28 28 (3211264)
I0414 09:55:02.149435  1901 net.cpp:165] Memory required for data: 4682023040
I0414 09:55:02.149438  1901 layer_factory.hpp:77] Creating layer bn3c_branch2a
I0414 09:55:02.149444  1901 net.cpp:100] Creating Layer bn3c_branch2a
I0414 09:55:02.149447  1901 net.cpp:434] bn3c_branch2a <- res3c_branch2a
I0414 09:55:02.149453  1901 net.cpp:395] bn3c_branch2a -> res3c_branch2a (in-place)
I0414 09:55:02.149611  1901 net.cpp:150] Setting up bn3c_branch2a
I0414 09:55:02.149616  1901 net.cpp:157] Top shape: 32 128 28 28 (3211264)
I0414 09:55:02.149619  1901 net.cpp:165] Memory required for data: 4694868096
I0414 09:55:02.149624  1901 layer_factory.hpp:77] Creating layer scale3c_branch2a
I0414 09:55:02.149629  1901 net.cpp:100] Creating Layer scale3c_branch2a
I0414 09:55:02.149632  1901 net.cpp:434] scale3c_branch2a <- res3c_branch2a
I0414 09:55:02.149636  1901 net.cpp:395] scale3c_branch2a -> res3c_branch2a (in-place)
I0414 09:55:02.149668  1901 layer_factory.hpp:77] Creating layer scale3c_branch2a
I0414 09:55:02.149755  1901 net.cpp:150] Setting up scale3c_branch2a
I0414 09:55:02.149760  1901 net.cpp:157] Top shape: 32 128 28 28 (3211264)
I0414 09:55:02.149762  1901 net.cpp:165] Memory required for data: 4707713152
I0414 09:55:02.149767  1901 layer_factory.hpp:77] Creating layer res3c_branch2a_relu
I0414 09:55:02.149773  1901 net.cpp:100] Creating Layer res3c_branch2a_relu
I0414 09:55:02.149776  1901 net.cpp:434] res3c_branch2a_relu <- res3c_branch2a
I0414 09:55:02.149780  1901 net.cpp:395] res3c_branch2a_relu -> res3c_branch2a (in-place)
I0414 09:55:02.150652  1901 net.cpp:150] Setting up res3c_branch2a_relu
I0414 09:55:02.150662  1901 net.cpp:157] Top shape: 32 128 28 28 (3211264)
I0414 09:55:02.150665  1901 net.cpp:165] Memory required for data: 4720558208
I0414 09:55:02.150670  1901 layer_factory.hpp:77] Creating layer res3c_branch2b
I0414 09:55:02.150677  1901 net.cpp:100] Creating Layer res3c_branch2b
I0414 09:55:02.150681  1901 net.cpp:434] res3c_branch2b <- res3c_branch2a
I0414 09:55:02.150686  1901 net.cpp:408] res3c_branch2b -> res3c_branch2b
I0414 09:55:02.152835  1901 net.cpp:150] Setting up res3c_branch2b
I0414 09:55:02.152847  1901 net.cpp:157] Top shape: 32 128 28 28 (3211264)
I0414 09:55:02.152849  1901 net.cpp:165] Memory required for data: 4733403264
I0414 09:55:02.152854  1901 layer_factory.hpp:77] Creating layer bn3c_branch2b
I0414 09:55:02.152860  1901 net.cpp:100] Creating Layer bn3c_branch2b
I0414 09:55:02.152863  1901 net.cpp:434] bn3c_branch2b <- res3c_branch2b
I0414 09:55:02.152869  1901 net.cpp:395] bn3c_branch2b -> res3c_branch2b (in-place)
I0414 09:55:02.153033  1901 net.cpp:150] Setting up bn3c_branch2b
I0414 09:55:02.153038  1901 net.cpp:157] Top shape: 32 128 28 28 (3211264)
I0414 09:55:02.153040  1901 net.cpp:165] Memory required for data: 4746248320
I0414 09:55:02.153046  1901 layer_factory.hpp:77] Creating layer scale3c_branch2b
I0414 09:55:02.153051  1901 net.cpp:100] Creating Layer scale3c_branch2b
I0414 09:55:02.153054  1901 net.cpp:434] scale3c_branch2b <- res3c_branch2b
I0414 09:55:02.153059  1901 net.cpp:395] scale3c_branch2b -> res3c_branch2b (in-place)
I0414 09:55:02.153097  1901 layer_factory.hpp:77] Creating layer scale3c_branch2b
I0414 09:55:02.153218  1901 net.cpp:150] Setting up scale3c_branch2b
I0414 09:55:02.153224  1901 net.cpp:157] Top shape: 32 128 28 28 (3211264)
I0414 09:55:02.153228  1901 net.cpp:165] Memory required for data: 4759093376
I0414 09:55:02.153233  1901 layer_factory.hpp:77] Creating layer res3c_branch2b_relu
I0414 09:55:02.153237  1901 net.cpp:100] Creating Layer res3c_branch2b_relu
I0414 09:55:02.153239  1901 net.cpp:434] res3c_branch2b_relu <- res3c_branch2b
I0414 09:55:02.153245  1901 net.cpp:395] res3c_branch2b_relu -> res3c_branch2b (in-place)
I0414 09:55:02.153396  1901 net.cpp:150] Setting up res3c_branch2b_relu
I0414 09:55:02.153403  1901 net.cpp:157] Top shape: 32 128 28 28 (3211264)
I0414 09:55:02.153406  1901 net.cpp:165] Memory required for data: 4771938432
I0414 09:55:02.153409  1901 layer_factory.hpp:77] Creating layer res3c_branch2c
I0414 09:55:02.153416  1901 net.cpp:100] Creating Layer res3c_branch2c
I0414 09:55:02.153420  1901 net.cpp:434] res3c_branch2c <- res3c_branch2b
I0414 09:55:02.153424  1901 net.cpp:408] res3c_branch2c -> res3c_branch2c
I0414 09:55:02.154767  1901 net.cpp:150] Setting up res3c_branch2c
I0414 09:55:02.154778  1901 net.cpp:157] Top shape: 32 512 28 28 (12845056)
I0414 09:55:02.154781  1901 net.cpp:165] Memory required for data: 4823318656
I0414 09:55:02.154786  1901 layer_factory.hpp:77] Creating layer bn3c_branch2c
I0414 09:55:02.154793  1901 net.cpp:100] Creating Layer bn3c_branch2c
I0414 09:55:02.154795  1901 net.cpp:434] bn3c_branch2c <- res3c_branch2c
I0414 09:55:02.154801  1901 net.cpp:395] bn3c_branch2c -> res3c_branch2c (in-place)
I0414 09:55:02.154958  1901 net.cpp:150] Setting up bn3c_branch2c
I0414 09:55:02.154964  1901 net.cpp:157] Top shape: 32 512 28 28 (12845056)
I0414 09:55:02.154966  1901 net.cpp:165] Memory required for data: 4874698880
I0414 09:55:02.154973  1901 layer_factory.hpp:77] Creating layer scale3c_branch2c
I0414 09:55:02.154978  1901 net.cpp:100] Creating Layer scale3c_branch2c
I0414 09:55:02.154980  1901 net.cpp:434] scale3c_branch2c <- res3c_branch2c
I0414 09:55:02.154984  1901 net.cpp:395] scale3c_branch2c -> res3c_branch2c (in-place)
I0414 09:55:02.155017  1901 layer_factory.hpp:77] Creating layer scale3c_branch2c
I0414 09:55:02.155109  1901 net.cpp:150] Setting up scale3c_branch2c
I0414 09:55:02.155114  1901 net.cpp:157] Top shape: 32 512 28 28 (12845056)
I0414 09:55:02.155117  1901 net.cpp:165] Memory required for data: 4926079104
I0414 09:55:02.155122  1901 layer_factory.hpp:77] Creating layer res3c
I0414 09:55:02.155125  1901 net.cpp:100] Creating Layer res3c
I0414 09:55:02.155128  1901 net.cpp:434] res3c <- res3b_res3b_relu_0_split_1
I0414 09:55:02.155133  1901 net.cpp:434] res3c <- res3c_branch2c
I0414 09:55:02.155138  1901 net.cpp:408] res3c -> res3c
I0414 09:55:02.155156  1901 net.cpp:150] Setting up res3c
I0414 09:55:02.155161  1901 net.cpp:157] Top shape: 32 512 28 28 (12845056)
I0414 09:55:02.155164  1901 net.cpp:165] Memory required for data: 4977459328
I0414 09:55:02.155166  1901 layer_factory.hpp:77] Creating layer res3c_relu
I0414 09:55:02.155172  1901 net.cpp:100] Creating Layer res3c_relu
I0414 09:55:02.155175  1901 net.cpp:434] res3c_relu <- res3c
I0414 09:55:02.155179  1901 net.cpp:395] res3c_relu -> res3c (in-place)
I0414 09:55:02.155319  1901 net.cpp:150] Setting up res3c_relu
I0414 09:55:02.155326  1901 net.cpp:157] Top shape: 32 512 28 28 (12845056)
I0414 09:55:02.155328  1901 net.cpp:165] Memory required for data: 5028839552
I0414 09:55:02.155331  1901 layer_factory.hpp:77] Creating layer res3c_res3c_relu_0_split
I0414 09:55:02.155338  1901 net.cpp:100] Creating Layer res3c_res3c_relu_0_split
I0414 09:55:02.155340  1901 net.cpp:434] res3c_res3c_relu_0_split <- res3c
I0414 09:55:02.155346  1901 net.cpp:408] res3c_res3c_relu_0_split -> res3c_res3c_relu_0_split_0
I0414 09:55:02.155351  1901 net.cpp:408] res3c_res3c_relu_0_split -> res3c_res3c_relu_0_split_1
I0414 09:55:02.155385  1901 net.cpp:150] Setting up res3c_res3c_relu_0_split
I0414 09:55:02.155395  1901 net.cpp:157] Top shape: 32 512 28 28 (12845056)
I0414 09:55:02.155408  1901 net.cpp:157] Top shape: 32 512 28 28 (12845056)
I0414 09:55:02.155411  1901 net.cpp:165] Memory required for data: 5131600000
I0414 09:55:02.155413  1901 layer_factory.hpp:77] Creating layer res3d_branch2a
I0414 09:55:02.155421  1901 net.cpp:100] Creating Layer res3d_branch2a
I0414 09:55:02.155424  1901 net.cpp:434] res3d_branch2a <- res3c_res3c_relu_0_split_0
I0414 09:55:02.155429  1901 net.cpp:408] res3d_branch2a -> res3d_branch2a
I0414 09:55:02.157923  1901 net.cpp:150] Setting up res3d_branch2a
I0414 09:55:02.157935  1901 net.cpp:157] Top shape: 32 128 28 28 (3211264)
I0414 09:55:02.157938  1901 net.cpp:165] Memory required for data: 5144445056
I0414 09:55:02.157943  1901 layer_factory.hpp:77] Creating layer bn3d_branch2a
I0414 09:55:02.157949  1901 net.cpp:100] Creating Layer bn3d_branch2a
I0414 09:55:02.157953  1901 net.cpp:434] bn3d_branch2a <- res3d_branch2a
I0414 09:55:02.157958  1901 net.cpp:395] bn3d_branch2a -> res3d_branch2a (in-place)
I0414 09:55:02.158110  1901 net.cpp:150] Setting up bn3d_branch2a
I0414 09:55:02.158116  1901 net.cpp:157] Top shape: 32 128 28 28 (3211264)
I0414 09:55:02.158119  1901 net.cpp:165] Memory required for data: 5157290112
I0414 09:55:02.158138  1901 layer_factory.hpp:77] Creating layer scale3d_branch2a
I0414 09:55:02.158143  1901 net.cpp:100] Creating Layer scale3d_branch2a
I0414 09:55:02.158149  1901 net.cpp:434] scale3d_branch2a <- res3d_branch2a
I0414 09:55:02.158152  1901 net.cpp:395] scale3d_branch2a -> res3d_branch2a (in-place)
I0414 09:55:02.158185  1901 layer_factory.hpp:77] Creating layer scale3d_branch2a
I0414 09:55:02.158272  1901 net.cpp:150] Setting up scale3d_branch2a
I0414 09:55:02.158278  1901 net.cpp:157] Top shape: 32 128 28 28 (3211264)
I0414 09:55:02.158280  1901 net.cpp:165] Memory required for data: 5170135168
I0414 09:55:02.158285  1901 layer_factory.hpp:77] Creating layer res3d_branch2a_relu
I0414 09:55:02.158289  1901 net.cpp:100] Creating Layer res3d_branch2a_relu
I0414 09:55:02.158293  1901 net.cpp:434] res3d_branch2a_relu <- res3d_branch2a
I0414 09:55:02.158295  1901 net.cpp:395] res3d_branch2a_relu -> res3d_branch2a (in-place)
I0414 09:55:02.158437  1901 net.cpp:150] Setting up res3d_branch2a_relu
I0414 09:55:02.158443  1901 net.cpp:157] Top shape: 32 128 28 28 (3211264)
I0414 09:55:02.158445  1901 net.cpp:165] Memory required for data: 5182980224
I0414 09:55:02.158448  1901 layer_factory.hpp:77] Creating layer res3d_branch2b
I0414 09:55:02.158457  1901 net.cpp:100] Creating Layer res3d_branch2b
I0414 09:55:02.158460  1901 net.cpp:434] res3d_branch2b <- res3d_branch2a
I0414 09:55:02.158464  1901 net.cpp:408] res3d_branch2b -> res3d_branch2b
I0414 09:55:02.160655  1901 net.cpp:150] Setting up res3d_branch2b
I0414 09:55:02.160668  1901 net.cpp:157] Top shape: 32 128 28 28 (3211264)
I0414 09:55:02.160671  1901 net.cpp:165] Memory required for data: 5195825280
I0414 09:55:02.160676  1901 layer_factory.hpp:77] Creating layer bn3d_branch2b
I0414 09:55:02.160682  1901 net.cpp:100] Creating Layer bn3d_branch2b
I0414 09:55:02.160686  1901 net.cpp:434] bn3d_branch2b <- res3d_branch2b
I0414 09:55:02.160691  1901 net.cpp:395] bn3d_branch2b -> res3d_branch2b (in-place)
I0414 09:55:02.160856  1901 net.cpp:150] Setting up bn3d_branch2b
I0414 09:55:02.160861  1901 net.cpp:157] Top shape: 32 128 28 28 (3211264)
I0414 09:55:02.160864  1901 net.cpp:165] Memory required for data: 5208670336
I0414 09:55:02.160871  1901 layer_factory.hpp:77] Creating layer scale3d_branch2b
I0414 09:55:02.160876  1901 net.cpp:100] Creating Layer scale3d_branch2b
I0414 09:55:02.160878  1901 net.cpp:434] scale3d_branch2b <- res3d_branch2b
I0414 09:55:02.160882  1901 net.cpp:395] scale3d_branch2b -> res3d_branch2b (in-place)
I0414 09:55:02.160915  1901 layer_factory.hpp:77] Creating layer scale3d_branch2b
I0414 09:55:02.161006  1901 net.cpp:150] Setting up scale3d_branch2b
I0414 09:55:02.161011  1901 net.cpp:157] Top shape: 32 128 28 28 (3211264)
I0414 09:55:02.161018  1901 net.cpp:165] Memory required for data: 5221515392
I0414 09:55:02.161023  1901 layer_factory.hpp:77] Creating layer res3d_branch2b_relu
I0414 09:55:02.161041  1901 net.cpp:100] Creating Layer res3d_branch2b_relu
I0414 09:55:02.161043  1901 net.cpp:434] res3d_branch2b_relu <- res3d_branch2b
I0414 09:55:02.161048  1901 net.cpp:395] res3d_branch2b_relu -> res3d_branch2b (in-place)
I0414 09:55:02.161190  1901 net.cpp:150] Setting up res3d_branch2b_relu
I0414 09:55:02.161196  1901 net.cpp:157] Top shape: 32 128 28 28 (3211264)
I0414 09:55:02.161200  1901 net.cpp:165] Memory required for data: 5234360448
I0414 09:55:02.161202  1901 layer_factory.hpp:77] Creating layer res3d_branch2c
I0414 09:55:02.161211  1901 net.cpp:100] Creating Layer res3d_branch2c
I0414 09:55:02.161213  1901 net.cpp:434] res3d_branch2c <- res3d_branch2b
I0414 09:55:02.161217  1901 net.cpp:408] res3d_branch2c -> res3d_branch2c
I0414 09:55:02.162544  1901 net.cpp:150] Setting up res3d_branch2c
I0414 09:55:02.162557  1901 net.cpp:157] Top shape: 32 512 28 28 (12845056)
I0414 09:55:02.162560  1901 net.cpp:165] Memory required for data: 5285740672
I0414 09:55:02.162565  1901 layer_factory.hpp:77] Creating layer bn3d_branch2c
I0414 09:55:02.162570  1901 net.cpp:100] Creating Layer bn3d_branch2c
I0414 09:55:02.162573  1901 net.cpp:434] bn3d_branch2c <- res3d_branch2c
I0414 09:55:02.162577  1901 net.cpp:395] bn3d_branch2c -> res3d_branch2c (in-place)
I0414 09:55:02.162739  1901 net.cpp:150] Setting up bn3d_branch2c
I0414 09:55:02.162744  1901 net.cpp:157] Top shape: 32 512 28 28 (12845056)
I0414 09:55:02.162747  1901 net.cpp:165] Memory required for data: 5337120896
I0414 09:55:02.162753  1901 layer_factory.hpp:77] Creating layer scale3d_branch2c
I0414 09:55:02.162758  1901 net.cpp:100] Creating Layer scale3d_branch2c
I0414 09:55:02.162761  1901 net.cpp:434] scale3d_branch2c <- res3d_branch2c
I0414 09:55:02.162765  1901 net.cpp:395] scale3d_branch2c -> res3d_branch2c (in-place)
I0414 09:55:02.162801  1901 layer_factory.hpp:77] Creating layer scale3d_branch2c
I0414 09:55:02.162889  1901 net.cpp:150] Setting up scale3d_branch2c
I0414 09:55:02.162895  1901 net.cpp:157] Top shape: 32 512 28 28 (12845056)
I0414 09:55:02.162897  1901 net.cpp:165] Memory required for data: 5388501120
I0414 09:55:02.162902  1901 layer_factory.hpp:77] Creating layer res3d
I0414 09:55:02.162906  1901 net.cpp:100] Creating Layer res3d
I0414 09:55:02.162909  1901 net.cpp:434] res3d <- res3c_res3c_relu_0_split_1
I0414 09:55:02.162912  1901 net.cpp:434] res3d <- res3d_branch2c
I0414 09:55:02.162919  1901 net.cpp:408] res3d -> res3d
I0414 09:55:02.162936  1901 net.cpp:150] Setting up res3d
I0414 09:55:02.162941  1901 net.cpp:157] Top shape: 32 512 28 28 (12845056)
I0414 09:55:02.162943  1901 net.cpp:165] Memory required for data: 5439881344
I0414 09:55:02.162946  1901 layer_factory.hpp:77] Creating layer res3d_relu
I0414 09:55:02.162951  1901 net.cpp:100] Creating Layer res3d_relu
I0414 09:55:02.162955  1901 net.cpp:434] res3d_relu <- res3d
I0414 09:55:02.162958  1901 net.cpp:395] res3d_relu -> res3d (in-place)
I0414 09:55:02.163792  1901 net.cpp:150] Setting up res3d_relu
I0414 09:55:02.163805  1901 net.cpp:157] Top shape: 32 512 28 28 (12845056)
I0414 09:55:02.163807  1901 net.cpp:165] Memory required for data: 5491261568
I0414 09:55:02.163810  1901 layer_factory.hpp:77] Creating layer res3d_res3d_relu_0_split
I0414 09:55:02.163815  1901 net.cpp:100] Creating Layer res3d_res3d_relu_0_split
I0414 09:55:02.163818  1901 net.cpp:434] res3d_res3d_relu_0_split <- res3d
I0414 09:55:02.163822  1901 net.cpp:408] res3d_res3d_relu_0_split -> res3d_res3d_relu_0_split_0
I0414 09:55:02.163828  1901 net.cpp:408] res3d_res3d_relu_0_split -> res3d_res3d_relu_0_split_1
I0414 09:55:02.163866  1901 net.cpp:150] Setting up res3d_res3d_relu_0_split
I0414 09:55:02.163871  1901 net.cpp:157] Top shape: 32 512 28 28 (12845056)
I0414 09:55:02.163873  1901 net.cpp:157] Top shape: 32 512 28 28 (12845056)
I0414 09:55:02.163875  1901 net.cpp:165] Memory required for data: 5594022016
I0414 09:55:02.163878  1901 layer_factory.hpp:77] Creating layer res4a_branch1
I0414 09:55:02.163892  1901 net.cpp:100] Creating Layer res4a_branch1
I0414 09:55:02.163904  1901 net.cpp:434] res4a_branch1 <- res3d_res3d_relu_0_split_0
I0414 09:55:02.163911  1901 net.cpp:408] res4a_branch1 -> res4a_branch1
I0414 09:55:02.165948  1901 net.cpp:150] Setting up res4a_branch1
I0414 09:55:02.165959  1901 net.cpp:157] Top shape: 32 1024 14 14 (6422528)
I0414 09:55:02.165962  1901 net.cpp:165] Memory required for data: 5619712128
I0414 09:55:02.165967  1901 layer_factory.hpp:77] Creating layer bn4a_branch1
I0414 09:55:02.165974  1901 net.cpp:100] Creating Layer bn4a_branch1
I0414 09:55:02.165978  1901 net.cpp:434] bn4a_branch1 <- res4a_branch1
I0414 09:55:02.165984  1901 net.cpp:395] bn4a_branch1 -> res4a_branch1 (in-place)
I0414 09:55:02.166148  1901 net.cpp:150] Setting up bn4a_branch1
I0414 09:55:02.166154  1901 net.cpp:157] Top shape: 32 1024 14 14 (6422528)
I0414 09:55:02.166157  1901 net.cpp:165] Memory required for data: 5645402240
I0414 09:55:02.166162  1901 layer_factory.hpp:77] Creating layer scale4a_branch1
I0414 09:55:02.166169  1901 net.cpp:100] Creating Layer scale4a_branch1
I0414 09:55:02.166172  1901 net.cpp:434] scale4a_branch1 <- res4a_branch1
I0414 09:55:02.166175  1901 net.cpp:395] scale4a_branch1 -> res4a_branch1 (in-place)
I0414 09:55:02.166208  1901 layer_factory.hpp:77] Creating layer scale4a_branch1
I0414 09:55:02.166297  1901 net.cpp:150] Setting up scale4a_branch1
I0414 09:55:02.166303  1901 net.cpp:157] Top shape: 32 1024 14 14 (6422528)
I0414 09:55:02.166306  1901 net.cpp:165] Memory required for data: 5671092352
I0414 09:55:02.166311  1901 layer_factory.hpp:77] Creating layer res4a_branch2a
I0414 09:55:02.166317  1901 net.cpp:100] Creating Layer res4a_branch2a
I0414 09:55:02.166321  1901 net.cpp:434] res4a_branch2a <- res3d_res3d_relu_0_split_1
I0414 09:55:02.166326  1901 net.cpp:408] res4a_branch2a -> res4a_branch2a
I0414 09:55:02.168895  1901 net.cpp:150] Setting up res4a_branch2a
I0414 09:55:02.168907  1901 net.cpp:157] Top shape: 32 256 14 14 (1605632)
I0414 09:55:02.168910  1901 net.cpp:165] Memory required for data: 5677514880
I0414 09:55:02.168915  1901 layer_factory.hpp:77] Creating layer bn4a_branch2a
I0414 09:55:02.168920  1901 net.cpp:100] Creating Layer bn4a_branch2a
I0414 09:55:02.168925  1901 net.cpp:434] bn4a_branch2a <- res4a_branch2a
I0414 09:55:02.168931  1901 net.cpp:395] bn4a_branch2a -> res4a_branch2a (in-place)
I0414 09:55:02.169085  1901 net.cpp:150] Setting up bn4a_branch2a
I0414 09:55:02.169091  1901 net.cpp:157] Top shape: 32 256 14 14 (1605632)
I0414 09:55:02.169093  1901 net.cpp:165] Memory required for data: 5683937408
I0414 09:55:02.169100  1901 layer_factory.hpp:77] Creating layer scale4a_branch2a
I0414 09:55:02.169104  1901 net.cpp:100] Creating Layer scale4a_branch2a
I0414 09:55:02.169107  1901 net.cpp:434] scale4a_branch2a <- res4a_branch2a
I0414 09:55:02.169111  1901 net.cpp:395] scale4a_branch2a -> res4a_branch2a (in-place)
I0414 09:55:02.169145  1901 layer_factory.hpp:77] Creating layer scale4a_branch2a
I0414 09:55:02.169232  1901 net.cpp:150] Setting up scale4a_branch2a
I0414 09:55:02.169237  1901 net.cpp:157] Top shape: 32 256 14 14 (1605632)
I0414 09:55:02.169239  1901 net.cpp:165] Memory required for data: 5690359936
I0414 09:55:02.169245  1901 layer_factory.hpp:77] Creating layer res4a_branch2a_relu
I0414 09:55:02.169248  1901 net.cpp:100] Creating Layer res4a_branch2a_relu
I0414 09:55:02.169251  1901 net.cpp:434] res4a_branch2a_relu <- res4a_branch2a
I0414 09:55:02.169257  1901 net.cpp:395] res4a_branch2a_relu -> res4a_branch2a (in-place)
I0414 09:55:02.170099  1901 net.cpp:150] Setting up res4a_branch2a_relu
I0414 09:55:02.170110  1901 net.cpp:157] Top shape: 32 256 14 14 (1605632)
I0414 09:55:02.170112  1901 net.cpp:165] Memory required for data: 5696782464
I0414 09:55:02.170116  1901 layer_factory.hpp:77] Creating layer res4a_branch2b
I0414 09:55:02.170125  1901 net.cpp:100] Creating Layer res4a_branch2b
I0414 09:55:02.170127  1901 net.cpp:434] res4a_branch2b <- res4a_branch2a
I0414 09:55:02.170137  1901 net.cpp:408] res4a_branch2b -> res4a_branch2b
I0414 09:55:02.173768  1901 net.cpp:150] Setting up res4a_branch2b
I0414 09:55:02.173791  1901 net.cpp:157] Top shape: 32 256 14 14 (1605632)
I0414 09:55:02.173794  1901 net.cpp:165] Memory required for data: 5703204992
I0414 09:55:02.173799  1901 layer_factory.hpp:77] Creating layer bn4a_branch2b
I0414 09:55:02.173810  1901 net.cpp:100] Creating Layer bn4a_branch2b
I0414 09:55:02.173813  1901 net.cpp:434] bn4a_branch2b <- res4a_branch2b
I0414 09:55:02.173818  1901 net.cpp:395] bn4a_branch2b -> res4a_branch2b (in-place)
I0414 09:55:02.173979  1901 net.cpp:150] Setting up bn4a_branch2b
I0414 09:55:02.173985  1901 net.cpp:157] Top shape: 32 256 14 14 (1605632)
I0414 09:55:02.173986  1901 net.cpp:165] Memory required for data: 5709627520
I0414 09:55:02.173993  1901 layer_factory.hpp:77] Creating layer scale4a_branch2b
I0414 09:55:02.174000  1901 net.cpp:100] Creating Layer scale4a_branch2b
I0414 09:55:02.174003  1901 net.cpp:434] scale4a_branch2b <- res4a_branch2b
I0414 09:55:02.174006  1901 net.cpp:395] scale4a_branch2b -> res4a_branch2b (in-place)
I0414 09:55:02.174041  1901 layer_factory.hpp:77] Creating layer scale4a_branch2b
I0414 09:55:02.174130  1901 net.cpp:150] Setting up scale4a_branch2b
I0414 09:55:02.174136  1901 net.cpp:157] Top shape: 32 256 14 14 (1605632)
I0414 09:55:02.174139  1901 net.cpp:165] Memory required for data: 5716050048
I0414 09:55:02.174144  1901 layer_factory.hpp:77] Creating layer res4a_branch2b_relu
I0414 09:55:02.174147  1901 net.cpp:100] Creating Layer res4a_branch2b_relu
I0414 09:55:02.174150  1901 net.cpp:434] res4a_branch2b_relu <- res4a_branch2b
I0414 09:55:02.174155  1901 net.cpp:395] res4a_branch2b_relu -> res4a_branch2b (in-place)
I0414 09:55:02.174300  1901 net.cpp:150] Setting up res4a_branch2b_relu
I0414 09:55:02.174306  1901 net.cpp:157] Top shape: 32 256 14 14 (1605632)
I0414 09:55:02.174309  1901 net.cpp:165] Memory required for data: 5722472576
I0414 09:55:02.174312  1901 layer_factory.hpp:77] Creating layer res4a_branch2c
I0414 09:55:02.174319  1901 net.cpp:100] Creating Layer res4a_branch2c
I0414 09:55:02.174322  1901 net.cpp:434] res4a_branch2c <- res4a_branch2b
I0414 09:55:02.174329  1901 net.cpp:408] res4a_branch2c -> res4a_branch2c
I0414 09:55:02.175772  1901 net.cpp:150] Setting up res4a_branch2c
I0414 09:55:02.175784  1901 net.cpp:157] Top shape: 32 1024 14 14 (6422528)
I0414 09:55:02.175786  1901 net.cpp:165] Memory required for data: 5748162688
I0414 09:55:02.175791  1901 layer_factory.hpp:77] Creating layer bn4a_branch2c
I0414 09:55:02.175798  1901 net.cpp:100] Creating Layer bn4a_branch2c
I0414 09:55:02.175802  1901 net.cpp:434] bn4a_branch2c <- res4a_branch2c
I0414 09:55:02.175807  1901 net.cpp:395] bn4a_branch2c -> res4a_branch2c (in-place)
I0414 09:55:02.175971  1901 net.cpp:150] Setting up bn4a_branch2c
I0414 09:55:02.175977  1901 net.cpp:157] Top shape: 32 1024 14 14 (6422528)
I0414 09:55:02.175981  1901 net.cpp:165] Memory required for data: 5773852800
I0414 09:55:02.175986  1901 layer_factory.hpp:77] Creating layer scale4a_branch2c
I0414 09:55:02.175992  1901 net.cpp:100] Creating Layer scale4a_branch2c
I0414 09:55:02.175994  1901 net.cpp:434] scale4a_branch2c <- res4a_branch2c
I0414 09:55:02.175999  1901 net.cpp:395] scale4a_branch2c -> res4a_branch2c (in-place)
I0414 09:55:02.176030  1901 layer_factory.hpp:77] Creating layer scale4a_branch2c
I0414 09:55:02.176126  1901 net.cpp:150] Setting up scale4a_branch2c
I0414 09:55:02.176132  1901 net.cpp:157] Top shape: 32 1024 14 14 (6422528)
I0414 09:55:02.176134  1901 net.cpp:165] Memory required for data: 5799542912
I0414 09:55:02.176139  1901 layer_factory.hpp:77] Creating layer res4a
I0414 09:55:02.176143  1901 net.cpp:100] Creating Layer res4a
I0414 09:55:02.176146  1901 net.cpp:434] res4a <- res4a_branch1
I0414 09:55:02.176151  1901 net.cpp:434] res4a <- res4a_branch2c
I0414 09:55:02.176153  1901 net.cpp:408] res4a -> res4a
I0414 09:55:02.176175  1901 net.cpp:150] Setting up res4a
I0414 09:55:02.176180  1901 net.cpp:157] Top shape: 32 1024 14 14 (6422528)
I0414 09:55:02.176185  1901 net.cpp:165] Memory required for data: 5825233024
I0414 09:55:02.176201  1901 layer_factory.hpp:77] Creating layer res4a_relu
I0414 09:55:02.176208  1901 net.cpp:100] Creating Layer res4a_relu
I0414 09:55:02.176211  1901 net.cpp:434] res4a_relu <- res4a
I0414 09:55:02.176237  1901 net.cpp:395] res4a_relu -> res4a (in-place)
I0414 09:55:02.176407  1901 net.cpp:150] Setting up res4a_relu
I0414 09:55:02.176416  1901 net.cpp:157] Top shape: 32 1024 14 14 (6422528)
I0414 09:55:02.176419  1901 net.cpp:165] Memory required for data: 5850923136
I0414 09:55:02.176422  1901 layer_factory.hpp:77] Creating layer res4a_res4a_relu_0_split
I0414 09:55:02.176426  1901 net.cpp:100] Creating Layer res4a_res4a_relu_0_split
I0414 09:55:02.176430  1901 net.cpp:434] res4a_res4a_relu_0_split <- res4a
I0414 09:55:02.176434  1901 net.cpp:408] res4a_res4a_relu_0_split -> res4a_res4a_relu_0_split_0
I0414 09:55:02.176440  1901 net.cpp:408] res4a_res4a_relu_0_split -> res4a_res4a_relu_0_split_1
I0414 09:55:02.176476  1901 net.cpp:150] Setting up res4a_res4a_relu_0_split
I0414 09:55:02.176481  1901 net.cpp:157] Top shape: 32 1024 14 14 (6422528)
I0414 09:55:02.176484  1901 net.cpp:157] Top shape: 32 1024 14 14 (6422528)
I0414 09:55:02.176487  1901 net.cpp:165] Memory required for data: 5902303360
I0414 09:55:02.176491  1901 layer_factory.hpp:77] Creating layer res4b_branch2a
I0414 09:55:02.176507  1901 net.cpp:100] Creating Layer res4b_branch2a
I0414 09:55:02.176512  1901 net.cpp:434] res4b_branch2a <- res4a_res4a_relu_0_split_0
I0414 09:55:02.176515  1901 net.cpp:408] res4b_branch2a -> res4b_branch2a
I0414 09:55:02.179147  1901 net.cpp:150] Setting up res4b_branch2a
I0414 09:55:02.179160  1901 net.cpp:157] Top shape: 32 256 14 14 (1605632)
I0414 09:55:02.179163  1901 net.cpp:165] Memory required for data: 5908725888
I0414 09:55:02.179168  1901 layer_factory.hpp:77] Creating layer bn4b_branch2a
I0414 09:55:02.179174  1901 net.cpp:100] Creating Layer bn4b_branch2a
I0414 09:55:02.179177  1901 net.cpp:434] bn4b_branch2a <- res4b_branch2a
I0414 09:55:02.179181  1901 net.cpp:395] bn4b_branch2a -> res4b_branch2a (in-place)
I0414 09:55:02.179343  1901 net.cpp:150] Setting up bn4b_branch2a
I0414 09:55:02.179349  1901 net.cpp:157] Top shape: 32 256 14 14 (1605632)
I0414 09:55:02.179352  1901 net.cpp:165] Memory required for data: 5915148416
I0414 09:55:02.179358  1901 layer_factory.hpp:77] Creating layer scale4b_branch2a
I0414 09:55:02.179363  1901 net.cpp:100] Creating Layer scale4b_branch2a
I0414 09:55:02.179365  1901 net.cpp:434] scale4b_branch2a <- res4b_branch2a
I0414 09:55:02.179368  1901 net.cpp:395] scale4b_branch2a -> res4b_branch2a (in-place)
I0414 09:55:02.179404  1901 layer_factory.hpp:77] Creating layer scale4b_branch2a
I0414 09:55:02.179494  1901 net.cpp:150] Setting up scale4b_branch2a
I0414 09:55:02.179500  1901 net.cpp:157] Top shape: 32 256 14 14 (1605632)
I0414 09:55:02.179502  1901 net.cpp:165] Memory required for data: 5921570944
I0414 09:55:02.179507  1901 layer_factory.hpp:77] Creating layer res4b_branch2a_relu
I0414 09:55:02.179513  1901 net.cpp:100] Creating Layer res4b_branch2a_relu
I0414 09:55:02.179517  1901 net.cpp:434] res4b_branch2a_relu <- res4b_branch2a
I0414 09:55:02.179522  1901 net.cpp:395] res4b_branch2a_relu -> res4b_branch2a (in-place)
I0414 09:55:02.179662  1901 net.cpp:150] Setting up res4b_branch2a_relu
I0414 09:55:02.179669  1901 net.cpp:157] Top shape: 32 256 14 14 (1605632)
I0414 09:55:02.179672  1901 net.cpp:165] Memory required for data: 5927993472
I0414 09:55:02.179674  1901 layer_factory.hpp:77] Creating layer res4b_branch2b
I0414 09:55:02.179685  1901 net.cpp:100] Creating Layer res4b_branch2b
I0414 09:55:02.179688  1901 net.cpp:434] res4b_branch2b <- res4b_branch2a
I0414 09:55:02.179693  1901 net.cpp:408] res4b_branch2b -> res4b_branch2b
I0414 09:55:02.183375  1901 net.cpp:150] Setting up res4b_branch2b
I0414 09:55:02.183387  1901 net.cpp:157] Top shape: 32 256 14 14 (1605632)
I0414 09:55:02.183390  1901 net.cpp:165] Memory required for data: 5934416000
I0414 09:55:02.183399  1901 layer_factory.hpp:77] Creating layer bn4b_branch2b
I0414 09:55:02.183405  1901 net.cpp:100] Creating Layer bn4b_branch2b
I0414 09:55:02.183420  1901 net.cpp:434] bn4b_branch2b <- res4b_branch2b
I0414 09:55:02.183425  1901 net.cpp:395] bn4b_branch2b -> res4b_branch2b (in-place)
I0414 09:55:02.183589  1901 net.cpp:150] Setting up bn4b_branch2b
I0414 09:55:02.183595  1901 net.cpp:157] Top shape: 32 256 14 14 (1605632)
I0414 09:55:02.183598  1901 net.cpp:165] Memory required for data: 5940838528
I0414 09:55:02.183604  1901 layer_factory.hpp:77] Creating layer scale4b_branch2b
I0414 09:55:02.183611  1901 net.cpp:100] Creating Layer scale4b_branch2b
I0414 09:55:02.183614  1901 net.cpp:434] scale4b_branch2b <- res4b_branch2b
I0414 09:55:02.183619  1901 net.cpp:395] scale4b_branch2b -> res4b_branch2b (in-place)
I0414 09:55:02.183655  1901 layer_factory.hpp:77] Creating layer scale4b_branch2b
I0414 09:55:02.183743  1901 net.cpp:150] Setting up scale4b_branch2b
I0414 09:55:02.183748  1901 net.cpp:157] Top shape: 32 256 14 14 (1605632)
I0414 09:55:02.183750  1901 net.cpp:165] Memory required for data: 5947261056
I0414 09:55:02.183755  1901 layer_factory.hpp:77] Creating layer res4b_branch2b_relu
I0414 09:55:02.183761  1901 net.cpp:100] Creating Layer res4b_branch2b_relu
I0414 09:55:02.183764  1901 net.cpp:434] res4b_branch2b_relu <- res4b_branch2b
I0414 09:55:02.183769  1901 net.cpp:395] res4b_branch2b_relu -> res4b_branch2b (in-place)
I0414 09:55:02.183914  1901 net.cpp:150] Setting up res4b_branch2b_relu
I0414 09:55:02.183920  1901 net.cpp:157] Top shape: 32 256 14 14 (1605632)
I0414 09:55:02.183923  1901 net.cpp:165] Memory required for data: 5953683584
I0414 09:55:02.183926  1901 layer_factory.hpp:77] Creating layer res4b_branch2c
I0414 09:55:02.183933  1901 net.cpp:100] Creating Layer res4b_branch2c
I0414 09:55:02.183936  1901 net.cpp:434] res4b_branch2c <- res4b_branch2b
I0414 09:55:02.183940  1901 net.cpp:408] res4b_branch2c -> res4b_branch2c
I0414 09:55:02.185482  1901 net.cpp:150] Setting up res4b_branch2c
I0414 09:55:02.185494  1901 net.cpp:157] Top shape: 32 1024 14 14 (6422528)
I0414 09:55:02.185497  1901 net.cpp:165] Memory required for data: 5979373696
I0414 09:55:02.185503  1901 layer_factory.hpp:77] Creating layer bn4b_branch2c
I0414 09:55:02.185510  1901 net.cpp:100] Creating Layer bn4b_branch2c
I0414 09:55:02.185513  1901 net.cpp:434] bn4b_branch2c <- res4b_branch2c
I0414 09:55:02.185518  1901 net.cpp:395] bn4b_branch2c -> res4b_branch2c (in-place)
I0414 09:55:02.185685  1901 net.cpp:150] Setting up bn4b_branch2c
I0414 09:55:02.185691  1901 net.cpp:157] Top shape: 32 1024 14 14 (6422528)
I0414 09:55:02.185693  1901 net.cpp:165] Memory required for data: 6005063808
I0414 09:55:02.185699  1901 layer_factory.hpp:77] Creating layer scale4b_branch2c
I0414 09:55:02.185706  1901 net.cpp:100] Creating Layer scale4b_branch2c
I0414 09:55:02.185709  1901 net.cpp:434] scale4b_branch2c <- res4b_branch2c
I0414 09:55:02.185714  1901 net.cpp:395] scale4b_branch2c -> res4b_branch2c (in-place)
I0414 09:55:02.185747  1901 layer_factory.hpp:77] Creating layer scale4b_branch2c
I0414 09:55:02.185843  1901 net.cpp:150] Setting up scale4b_branch2c
I0414 09:55:02.185848  1901 net.cpp:157] Top shape: 32 1024 14 14 (6422528)
I0414 09:55:02.185852  1901 net.cpp:165] Memory required for data: 6030753920
I0414 09:55:02.185855  1901 layer_factory.hpp:77] Creating layer res4b
I0414 09:55:02.185860  1901 net.cpp:100] Creating Layer res4b
I0414 09:55:02.185863  1901 net.cpp:434] res4b <- res4a_res4a_relu_0_split_1
I0414 09:55:02.185866  1901 net.cpp:434] res4b <- res4b_branch2c
I0414 09:55:02.185873  1901 net.cpp:408] res4b -> res4b
I0414 09:55:02.185895  1901 net.cpp:150] Setting up res4b
I0414 09:55:02.185899  1901 net.cpp:157] Top shape: 32 1024 14 14 (6422528)
I0414 09:55:02.185902  1901 net.cpp:165] Memory required for data: 6056444032
I0414 09:55:02.185904  1901 layer_factory.hpp:77] Creating layer res4b_relu
I0414 09:55:02.185909  1901 net.cpp:100] Creating Layer res4b_relu
I0414 09:55:02.185911  1901 net.cpp:434] res4b_relu <- res4b
I0414 09:55:02.185919  1901 net.cpp:395] res4b_relu -> res4b (in-place)
I0414 09:55:02.186071  1901 net.cpp:150] Setting up res4b_relu
I0414 09:55:02.186079  1901 net.cpp:157] Top shape: 32 1024 14 14 (6422528)
I0414 09:55:02.186081  1901 net.cpp:165] Memory required for data: 6082134144
I0414 09:55:02.186084  1901 layer_factory.hpp:77] Creating layer res4b_res4b_relu_0_split
I0414 09:55:02.186089  1901 net.cpp:100] Creating Layer res4b_res4b_relu_0_split
I0414 09:55:02.186091  1901 net.cpp:434] res4b_res4b_relu_0_split <- res4b
I0414 09:55:02.186096  1901 net.cpp:408] res4b_res4b_relu_0_split -> res4b_res4b_relu_0_split_0
I0414 09:55:02.186101  1901 net.cpp:408] res4b_res4b_relu_0_split -> res4b_res4b_relu_0_split_1
I0414 09:55:02.186136  1901 net.cpp:150] Setting up res4b_res4b_relu_0_split
I0414 09:55:02.186141  1901 net.cpp:157] Top shape: 32 1024 14 14 (6422528)
I0414 09:55:02.186143  1901 net.cpp:157] Top shape: 32 1024 14 14 (6422528)
I0414 09:55:02.186146  1901 net.cpp:165] Memory required for data: 6133514368
I0414 09:55:02.186148  1901 layer_factory.hpp:77] Creating layer res4c_branch2a
I0414 09:55:02.186156  1901 net.cpp:100] Creating Layer res4c_branch2a
I0414 09:55:02.186159  1901 net.cpp:434] res4c_branch2a <- res4b_res4b_relu_0_split_0
I0414 09:55:02.186163  1901 net.cpp:408] res4c_branch2a -> res4c_branch2a
I0414 09:55:02.188807  1901 net.cpp:150] Setting up res4c_branch2a
I0414 09:55:02.188818  1901 net.cpp:157] Top shape: 32 256 14 14 (1605632)
I0414 09:55:02.188822  1901 net.cpp:165] Memory required for data: 6139936896
I0414 09:55:02.188827  1901 layer_factory.hpp:77] Creating layer bn4c_branch2a
I0414 09:55:02.188834  1901 net.cpp:100] Creating Layer bn4c_branch2a
I0414 09:55:02.188838  1901 net.cpp:434] bn4c_branch2a <- res4c_branch2a
I0414 09:55:02.188843  1901 net.cpp:395] bn4c_branch2a -> res4c_branch2a (in-place)
I0414 09:55:02.189002  1901 net.cpp:150] Setting up bn4c_branch2a
I0414 09:55:02.189007  1901 net.cpp:157] Top shape: 32 256 14 14 (1605632)
I0414 09:55:02.189010  1901 net.cpp:165] Memory required for data: 6146359424
I0414 09:55:02.189016  1901 layer_factory.hpp:77] Creating layer scale4c_branch2a
I0414 09:55:02.189021  1901 net.cpp:100] Creating Layer scale4c_branch2a
I0414 09:55:02.189023  1901 net.cpp:434] scale4c_branch2a <- res4c_branch2a
I0414 09:55:02.189029  1901 net.cpp:395] scale4c_branch2a -> res4c_branch2a (in-place)
I0414 09:55:02.189062  1901 layer_factory.hpp:77] Creating layer scale4c_branch2a
I0414 09:55:02.189153  1901 net.cpp:150] Setting up scale4c_branch2a
I0414 09:55:02.189158  1901 net.cpp:157] Top shape: 32 256 14 14 (1605632)
I0414 09:55:02.189162  1901 net.cpp:165] Memory required for data: 6152781952
I0414 09:55:02.189167  1901 layer_factory.hpp:77] Creating layer res4c_branch2a_relu
I0414 09:55:02.189170  1901 net.cpp:100] Creating Layer res4c_branch2a_relu
I0414 09:55:02.189173  1901 net.cpp:434] res4c_branch2a_relu <- res4c_branch2a
I0414 09:55:02.189177  1901 net.cpp:395] res4c_branch2a_relu -> res4c_branch2a (in-place)
I0414 09:55:02.190028  1901 net.cpp:150] Setting up res4c_branch2a_relu
I0414 09:55:02.190038  1901 net.cpp:157] Top shape: 32 256 14 14 (1605632)
I0414 09:55:02.190042  1901 net.cpp:165] Memory required for data: 6159204480
I0414 09:55:02.190044  1901 layer_factory.hpp:77] Creating layer res4c_branch2b
I0414 09:55:02.190052  1901 net.cpp:100] Creating Layer res4c_branch2b
I0414 09:55:02.190057  1901 net.cpp:434] res4c_branch2b <- res4c_branch2a
I0414 09:55:02.190062  1901 net.cpp:408] res4c_branch2b -> res4c_branch2b
I0414 09:55:02.194535  1901 net.cpp:150] Setting up res4c_branch2b
I0414 09:55:02.194547  1901 net.cpp:157] Top shape: 32 256 14 14 (1605632)
I0414 09:55:02.194550  1901 net.cpp:165] Memory required for data: 6165627008
I0414 09:55:02.194555  1901 layer_factory.hpp:77] Creating layer bn4c_branch2b
I0414 09:55:02.194562  1901 net.cpp:100] Creating Layer bn4c_branch2b
I0414 09:55:02.194566  1901 net.cpp:434] bn4c_branch2b <- res4c_branch2b
I0414 09:55:02.194571  1901 net.cpp:395] bn4c_branch2b -> res4c_branch2b (in-place)
I0414 09:55:02.194744  1901 net.cpp:150] Setting up bn4c_branch2b
I0414 09:55:02.194751  1901 net.cpp:157] Top shape: 32 256 14 14 (1605632)
I0414 09:55:02.194764  1901 net.cpp:165] Memory required for data: 6172049536
I0414 09:55:02.194772  1901 layer_factory.hpp:77] Creating layer scale4c_branch2b
I0414 09:55:02.194778  1901 net.cpp:100] Creating Layer scale4c_branch2b
I0414 09:55:02.194780  1901 net.cpp:434] scale4c_branch2b <- res4c_branch2b
I0414 09:55:02.194784  1901 net.cpp:395] scale4c_branch2b -> res4c_branch2b (in-place)
I0414 09:55:02.194821  1901 layer_factory.hpp:77] Creating layer scale4c_branch2b
I0414 09:55:02.194916  1901 net.cpp:150] Setting up scale4c_branch2b
I0414 09:55:02.194921  1901 net.cpp:157] Top shape: 32 256 14 14 (1605632)
I0414 09:55:02.194922  1901 net.cpp:165] Memory required for data: 6178472064
I0414 09:55:02.194927  1901 layer_factory.hpp:77] Creating layer res4c_branch2b_relu
I0414 09:55:02.194933  1901 net.cpp:100] Creating Layer res4c_branch2b_relu
I0414 09:55:02.194936  1901 net.cpp:434] res4c_branch2b_relu <- res4c_branch2b
I0414 09:55:02.194939  1901 net.cpp:395] res4c_branch2b_relu -> res4c_branch2b (in-place)
I0414 09:55:02.195088  1901 net.cpp:150] Setting up res4c_branch2b_relu
I0414 09:55:02.195096  1901 net.cpp:157] Top shape: 32 256 14 14 (1605632)
I0414 09:55:02.195098  1901 net.cpp:165] Memory required for data: 6184894592
I0414 09:55:02.195101  1901 layer_factory.hpp:77] Creating layer res4c_branch2c
I0414 09:55:02.195111  1901 net.cpp:100] Creating Layer res4c_branch2c
I0414 09:55:02.195113  1901 net.cpp:434] res4c_branch2c <- res4c_branch2b
I0414 09:55:02.195117  1901 net.cpp:408] res4c_branch2c -> res4c_branch2c
I0414 09:55:02.196588  1901 net.cpp:150] Setting up res4c_branch2c
I0414 09:55:02.196599  1901 net.cpp:157] Top shape: 32 1024 14 14 (6422528)
I0414 09:55:02.196602  1901 net.cpp:165] Memory required for data: 6210584704
I0414 09:55:02.196607  1901 layer_factory.hpp:77] Creating layer bn4c_branch2c
I0414 09:55:02.196614  1901 net.cpp:100] Creating Layer bn4c_branch2c
I0414 09:55:02.196617  1901 net.cpp:434] bn4c_branch2c <- res4c_branch2c
I0414 09:55:02.196624  1901 net.cpp:395] bn4c_branch2c -> res4c_branch2c (in-place)
I0414 09:55:02.196790  1901 net.cpp:150] Setting up bn4c_branch2c
I0414 09:55:02.196795  1901 net.cpp:157] Top shape: 32 1024 14 14 (6422528)
I0414 09:55:02.196799  1901 net.cpp:165] Memory required for data: 6236274816
I0414 09:55:02.196805  1901 layer_factory.hpp:77] Creating layer scale4c_branch2c
I0414 09:55:02.196811  1901 net.cpp:100] Creating Layer scale4c_branch2c
I0414 09:55:02.196815  1901 net.cpp:434] scale4c_branch2c <- res4c_branch2c
I0414 09:55:02.196817  1901 net.cpp:395] scale4c_branch2c -> res4c_branch2c (in-place)
I0414 09:55:02.196849  1901 layer_factory.hpp:77] Creating layer scale4c_branch2c
I0414 09:55:02.196951  1901 net.cpp:150] Setting up scale4c_branch2c
I0414 09:55:02.196957  1901 net.cpp:157] Top shape: 32 1024 14 14 (6422528)
I0414 09:55:02.196959  1901 net.cpp:165] Memory required for data: 6261964928
I0414 09:55:02.196964  1901 layer_factory.hpp:77] Creating layer res4c
I0414 09:55:02.196969  1901 net.cpp:100] Creating Layer res4c
I0414 09:55:02.196971  1901 net.cpp:434] res4c <- res4b_res4b_relu_0_split_1
I0414 09:55:02.196975  1901 net.cpp:434] res4c <- res4c_branch2c
I0414 09:55:02.196980  1901 net.cpp:408] res4c -> res4c
I0414 09:55:02.197001  1901 net.cpp:150] Setting up res4c
I0414 09:55:02.197007  1901 net.cpp:157] Top shape: 32 1024 14 14 (6422528)
I0414 09:55:02.197010  1901 net.cpp:165] Memory required for data: 6287655040
I0414 09:55:02.197012  1901 layer_factory.hpp:77] Creating layer res4c_relu
I0414 09:55:02.197017  1901 net.cpp:100] Creating Layer res4c_relu
I0414 09:55:02.197019  1901 net.cpp:434] res4c_relu <- res4c
I0414 09:55:02.197023  1901 net.cpp:395] res4c_relu -> res4c (in-place)
I0414 09:55:02.197166  1901 net.cpp:150] Setting up res4c_relu
I0414 09:55:02.197172  1901 net.cpp:157] Top shape: 32 1024 14 14 (6422528)
I0414 09:55:02.197175  1901 net.cpp:165] Memory required for data: 6313345152
I0414 09:55:02.197180  1901 layer_factory.hpp:77] Creating layer res4c_res4c_relu_0_split
I0414 09:55:02.197197  1901 net.cpp:100] Creating Layer res4c_res4c_relu_0_split
I0414 09:55:02.197201  1901 net.cpp:434] res4c_res4c_relu_0_split <- res4c
I0414 09:55:02.197204  1901 net.cpp:408] res4c_res4c_relu_0_split -> res4c_res4c_relu_0_split_0
I0414 09:55:02.197211  1901 net.cpp:408] res4c_res4c_relu_0_split -> res4c_res4c_relu_0_split_1
I0414 09:55:02.197247  1901 net.cpp:150] Setting up res4c_res4c_relu_0_split
I0414 09:55:02.197252  1901 net.cpp:157] Top shape: 32 1024 14 14 (6422528)
I0414 09:55:02.197254  1901 net.cpp:157] Top shape: 32 1024 14 14 (6422528)
I0414 09:55:02.197257  1901 net.cpp:165] Memory required for data: 6364725376
I0414 09:55:02.197259  1901 layer_factory.hpp:77] Creating layer res4d_branch2a
I0414 09:55:02.197266  1901 net.cpp:100] Creating Layer res4d_branch2a
I0414 09:55:02.197269  1901 net.cpp:434] res4d_branch2a <- res4c_res4c_relu_0_split_0
I0414 09:55:02.197275  1901 net.cpp:408] res4d_branch2a -> res4d_branch2a
I0414 09:55:02.199898  1901 net.cpp:150] Setting up res4d_branch2a
I0414 09:55:02.199909  1901 net.cpp:157] Top shape: 32 256 14 14 (1605632)
I0414 09:55:02.199913  1901 net.cpp:165] Memory required for data: 6371147904
I0414 09:55:02.199918  1901 layer_factory.hpp:77] Creating layer bn4d_branch2a
I0414 09:55:02.199924  1901 net.cpp:100] Creating Layer bn4d_branch2a
I0414 09:55:02.199928  1901 net.cpp:434] bn4d_branch2a <- res4d_branch2a
I0414 09:55:02.199932  1901 net.cpp:395] bn4d_branch2a -> res4d_branch2a (in-place)
I0414 09:55:02.200098  1901 net.cpp:150] Setting up bn4d_branch2a
I0414 09:55:02.200104  1901 net.cpp:157] Top shape: 32 256 14 14 (1605632)
I0414 09:55:02.200108  1901 net.cpp:165] Memory required for data: 6377570432
I0414 09:55:02.200114  1901 layer_factory.hpp:77] Creating layer scale4d_branch2a
I0414 09:55:02.200119  1901 net.cpp:100] Creating Layer scale4d_branch2a
I0414 09:55:02.200121  1901 net.cpp:434] scale4d_branch2a <- res4d_branch2a
I0414 09:55:02.200126  1901 net.cpp:395] scale4d_branch2a -> res4d_branch2a (in-place)
I0414 09:55:02.200160  1901 layer_factory.hpp:77] Creating layer scale4d_branch2a
I0414 09:55:02.200278  1901 net.cpp:150] Setting up scale4d_branch2a
I0414 09:55:02.200284  1901 net.cpp:157] Top shape: 32 256 14 14 (1605632)
I0414 09:55:02.200286  1901 net.cpp:165] Memory required for data: 6383992960
I0414 09:55:02.200291  1901 layer_factory.hpp:77] Creating layer res4d_branch2a_relu
I0414 09:55:02.200297  1901 net.cpp:100] Creating Layer res4d_branch2a_relu
I0414 09:55:02.200300  1901 net.cpp:434] res4d_branch2a_relu <- res4d_branch2a
I0414 09:55:02.200304  1901 net.cpp:395] res4d_branch2a_relu -> res4d_branch2a (in-place)
I0414 09:55:02.200454  1901 net.cpp:150] Setting up res4d_branch2a_relu
I0414 09:55:02.200462  1901 net.cpp:157] Top shape: 32 256 14 14 (1605632)
I0414 09:55:02.200465  1901 net.cpp:165] Memory required for data: 6390415488
I0414 09:55:02.200469  1901 layer_factory.hpp:77] Creating layer res4d_branch2b
I0414 09:55:02.200474  1901 net.cpp:100] Creating Layer res4d_branch2b
I0414 09:55:02.200477  1901 net.cpp:434] res4d_branch2b <- res4d_branch2a
I0414 09:55:02.200484  1901 net.cpp:408] res4d_branch2b -> res4d_branch2b
I0414 09:55:02.204136  1901 net.cpp:150] Setting up res4d_branch2b
I0414 09:55:02.204149  1901 net.cpp:157] Top shape: 32 256 14 14 (1605632)
I0414 09:55:02.204151  1901 net.cpp:165] Memory required for data: 6396838016
I0414 09:55:02.204156  1901 layer_factory.hpp:77] Creating layer bn4d_branch2b
I0414 09:55:02.204164  1901 net.cpp:100] Creating Layer bn4d_branch2b
I0414 09:55:02.204167  1901 net.cpp:434] bn4d_branch2b <- res4d_branch2b
I0414 09:55:02.204172  1901 net.cpp:395] bn4d_branch2b -> res4d_branch2b (in-place)
I0414 09:55:02.204355  1901 net.cpp:150] Setting up bn4d_branch2b
I0414 09:55:02.204361  1901 net.cpp:157] Top shape: 32 256 14 14 (1605632)
I0414 09:55:02.204365  1901 net.cpp:165] Memory required for data: 6403260544
I0414 09:55:02.204370  1901 layer_factory.hpp:77] Creating layer scale4d_branch2b
I0414 09:55:02.204378  1901 net.cpp:100] Creating Layer scale4d_branch2b
I0414 09:55:02.204393  1901 net.cpp:434] scale4d_branch2b <- res4d_branch2b
I0414 09:55:02.204399  1901 net.cpp:395] scale4d_branch2b -> res4d_branch2b (in-place)
I0414 09:55:02.204437  1901 layer_factory.hpp:77] Creating layer scale4d_branch2b
I0414 09:55:02.204532  1901 net.cpp:150] Setting up scale4d_branch2b
I0414 09:55:02.204537  1901 net.cpp:157] Top shape: 32 256 14 14 (1605632)
I0414 09:55:02.204540  1901 net.cpp:165] Memory required for data: 6409683072
I0414 09:55:02.204545  1901 layer_factory.hpp:77] Creating layer res4d_branch2b_relu
I0414 09:55:02.204551  1901 net.cpp:100] Creating Layer res4d_branch2b_relu
I0414 09:55:02.204553  1901 net.cpp:434] res4d_branch2b_relu <- res4d_branch2b
I0414 09:55:02.204557  1901 net.cpp:395] res4d_branch2b_relu -> res4d_branch2b (in-place)
I0414 09:55:02.204707  1901 net.cpp:150] Setting up res4d_branch2b_relu
I0414 09:55:02.204715  1901 net.cpp:157] Top shape: 32 256 14 14 (1605632)
I0414 09:55:02.204717  1901 net.cpp:165] Memory required for data: 6416105600
I0414 09:55:02.204720  1901 layer_factory.hpp:77] Creating layer res4d_branch2c
I0414 09:55:02.204726  1901 net.cpp:100] Creating Layer res4d_branch2c
I0414 09:55:02.204730  1901 net.cpp:434] res4d_branch2c <- res4d_branch2b
I0414 09:55:02.204735  1901 net.cpp:408] res4d_branch2c -> res4d_branch2c
I0414 09:55:02.206199  1901 net.cpp:150] Setting up res4d_branch2c
I0414 09:55:02.206212  1901 net.cpp:157] Top shape: 32 1024 14 14 (6422528)
I0414 09:55:02.206215  1901 net.cpp:165] Memory required for data: 6441795712
I0414 09:55:02.206220  1901 layer_factory.hpp:77] Creating layer bn4d_branch2c
I0414 09:55:02.206226  1901 net.cpp:100] Creating Layer bn4d_branch2c
I0414 09:55:02.206229  1901 net.cpp:434] bn4d_branch2c <- res4d_branch2c
I0414 09:55:02.206235  1901 net.cpp:395] bn4d_branch2c -> res4d_branch2c (in-place)
I0414 09:55:02.206406  1901 net.cpp:150] Setting up bn4d_branch2c
I0414 09:55:02.206411  1901 net.cpp:157] Top shape: 32 1024 14 14 (6422528)
I0414 09:55:02.206414  1901 net.cpp:165] Memory required for data: 6467485824
I0414 09:55:02.206420  1901 layer_factory.hpp:77] Creating layer scale4d_branch2c
I0414 09:55:02.206425  1901 net.cpp:100] Creating Layer scale4d_branch2c
I0414 09:55:02.206429  1901 net.cpp:434] scale4d_branch2c <- res4d_branch2c
I0414 09:55:02.206431  1901 net.cpp:395] scale4d_branch2c -> res4d_branch2c (in-place)
I0414 09:55:02.206466  1901 layer_factory.hpp:77] Creating layer scale4d_branch2c
I0414 09:55:02.206568  1901 net.cpp:150] Setting up scale4d_branch2c
I0414 09:55:02.206573  1901 net.cpp:157] Top shape: 32 1024 14 14 (6422528)
I0414 09:55:02.206576  1901 net.cpp:165] Memory required for data: 6493175936
I0414 09:55:02.206581  1901 layer_factory.hpp:77] Creating layer res4d
I0414 09:55:02.206585  1901 net.cpp:100] Creating Layer res4d
I0414 09:55:02.206588  1901 net.cpp:434] res4d <- res4c_res4c_relu_0_split_1
I0414 09:55:02.206593  1901 net.cpp:434] res4d <- res4d_branch2c
I0414 09:55:02.206598  1901 net.cpp:408] res4d -> res4d
I0414 09:55:02.206617  1901 net.cpp:150] Setting up res4d
I0414 09:55:02.206622  1901 net.cpp:157] Top shape: 32 1024 14 14 (6422528)
I0414 09:55:02.206624  1901 net.cpp:165] Memory required for data: 6518866048
I0414 09:55:02.206627  1901 layer_factory.hpp:77] Creating layer res4d_relu
I0414 09:55:02.206637  1901 net.cpp:100] Creating Layer res4d_relu
I0414 09:55:02.206640  1901 net.cpp:434] res4d_relu <- res4d
I0414 09:55:02.206643  1901 net.cpp:395] res4d_relu -> res4d (in-place)
I0414 09:55:02.206784  1901 net.cpp:150] Setting up res4d_relu
I0414 09:55:02.206789  1901 net.cpp:157] Top shape: 32 1024 14 14 (6422528)
I0414 09:55:02.206792  1901 net.cpp:165] Memory required for data: 6544556160
I0414 09:55:02.206795  1901 layer_factory.hpp:77] Creating layer res4d_res4d_relu_0_split
I0414 09:55:02.206801  1901 net.cpp:100] Creating Layer res4d_res4d_relu_0_split
I0414 09:55:02.206804  1901 net.cpp:434] res4d_res4d_relu_0_split <- res4d
I0414 09:55:02.206809  1901 net.cpp:408] res4d_res4d_relu_0_split -> res4d_res4d_relu_0_split_0
I0414 09:55:02.206818  1901 net.cpp:408] res4d_res4d_relu_0_split -> res4d_res4d_relu_0_split_1
I0414 09:55:02.206866  1901 net.cpp:150] Setting up res4d_res4d_relu_0_split
I0414 09:55:02.206871  1901 net.cpp:157] Top shape: 32 1024 14 14 (6422528)
I0414 09:55:02.206873  1901 net.cpp:157] Top shape: 32 1024 14 14 (6422528)
I0414 09:55:02.206876  1901 net.cpp:165] Memory required for data: 6595936384
I0414 09:55:02.206878  1901 layer_factory.hpp:77] Creating layer res4e_branch2a
I0414 09:55:02.206885  1901 net.cpp:100] Creating Layer res4e_branch2a
I0414 09:55:02.206888  1901 net.cpp:434] res4e_branch2a <- res4d_res4d_relu_0_split_0
I0414 09:55:02.206894  1901 net.cpp:408] res4e_branch2a -> res4e_branch2a
I0414 09:55:02.209559  1901 net.cpp:150] Setting up res4e_branch2a
I0414 09:55:02.209578  1901 net.cpp:157] Top shape: 32 256 14 14 (1605632)
I0414 09:55:02.209580  1901 net.cpp:165] Memory required for data: 6602358912
I0414 09:55:02.209585  1901 layer_factory.hpp:77] Creating layer bn4e_branch2a
I0414 09:55:02.209591  1901 net.cpp:100] Creating Layer bn4e_branch2a
I0414 09:55:02.209596  1901 net.cpp:434] bn4e_branch2a <- res4e_branch2a
I0414 09:55:02.209601  1901 net.cpp:395] bn4e_branch2a -> res4e_branch2a (in-place)
I0414 09:55:02.209779  1901 net.cpp:150] Setting up bn4e_branch2a
I0414 09:55:02.209785  1901 net.cpp:157] Top shape: 32 256 14 14 (1605632)
I0414 09:55:02.209789  1901 net.cpp:165] Memory required for data: 6608781440
I0414 09:55:02.209794  1901 layer_factory.hpp:77] Creating layer scale4e_branch2a
I0414 09:55:02.209801  1901 net.cpp:100] Creating Layer scale4e_branch2a
I0414 09:55:02.209805  1901 net.cpp:434] scale4e_branch2a <- res4e_branch2a
I0414 09:55:02.209808  1901 net.cpp:395] scale4e_branch2a -> res4e_branch2a (in-place)
I0414 09:55:02.209861  1901 layer_factory.hpp:77] Creating layer scale4e_branch2a
I0414 09:55:02.209959  1901 net.cpp:150] Setting up scale4e_branch2a
I0414 09:55:02.209964  1901 net.cpp:157] Top shape: 32 256 14 14 (1605632)
I0414 09:55:02.209966  1901 net.cpp:165] Memory required for data: 6615203968
I0414 09:55:02.209971  1901 layer_factory.hpp:77] Creating layer res4e_branch2a_relu
I0414 09:55:02.209975  1901 net.cpp:100] Creating Layer res4e_branch2a_relu
I0414 09:55:02.209978  1901 net.cpp:434] res4e_branch2a_relu <- res4e_branch2a
I0414 09:55:02.209983  1901 net.cpp:395] res4e_branch2a_relu -> res4e_branch2a (in-place)
I0414 09:55:02.210834  1901 net.cpp:150] Setting up res4e_branch2a_relu
I0414 09:55:02.210844  1901 net.cpp:157] Top shape: 32 256 14 14 (1605632)
I0414 09:55:02.210847  1901 net.cpp:165] Memory required for data: 6621626496
I0414 09:55:02.210850  1901 layer_factory.hpp:77] Creating layer res4e_branch2b
I0414 09:55:02.210858  1901 net.cpp:100] Creating Layer res4e_branch2b
I0414 09:55:02.210862  1901 net.cpp:434] res4e_branch2b <- res4e_branch2a
I0414 09:55:02.210866  1901 net.cpp:408] res4e_branch2b -> res4e_branch2b
I0414 09:55:02.214511  1901 net.cpp:150] Setting up res4e_branch2b
I0414 09:55:02.214524  1901 net.cpp:157] Top shape: 32 256 14 14 (1605632)
I0414 09:55:02.214526  1901 net.cpp:165] Memory required for data: 6628049024
I0414 09:55:02.214531  1901 layer_factory.hpp:77] Creating layer bn4e_branch2b
I0414 09:55:02.214539  1901 net.cpp:100] Creating Layer bn4e_branch2b
I0414 09:55:02.214541  1901 net.cpp:434] bn4e_branch2b <- res4e_branch2b
I0414 09:55:02.214546  1901 net.cpp:395] bn4e_branch2b -> res4e_branch2b (in-place)
I0414 09:55:02.214718  1901 net.cpp:150] Setting up bn4e_branch2b
I0414 09:55:02.214723  1901 net.cpp:157] Top shape: 32 256 14 14 (1605632)
I0414 09:55:02.214726  1901 net.cpp:165] Memory required for data: 6634471552
I0414 09:55:02.214733  1901 layer_factory.hpp:77] Creating layer scale4e_branch2b
I0414 09:55:02.214738  1901 net.cpp:100] Creating Layer scale4e_branch2b
I0414 09:55:02.214741  1901 net.cpp:434] scale4e_branch2b <- res4e_branch2b
I0414 09:55:02.214746  1901 net.cpp:395] scale4e_branch2b -> res4e_branch2b (in-place)
I0414 09:55:02.214781  1901 layer_factory.hpp:77] Creating layer scale4e_branch2b
I0414 09:55:02.214879  1901 net.cpp:150] Setting up scale4e_branch2b
I0414 09:55:02.214896  1901 net.cpp:157] Top shape: 32 256 14 14 (1605632)
I0414 09:55:02.214900  1901 net.cpp:165] Memory required for data: 6640894080
I0414 09:55:02.214905  1901 layer_factory.hpp:77] Creating layer res4e_branch2b_relu
I0414 09:55:02.214910  1901 net.cpp:100] Creating Layer res4e_branch2b_relu
I0414 09:55:02.214913  1901 net.cpp:434] res4e_branch2b_relu <- res4e_branch2b
I0414 09:55:02.214917  1901 net.cpp:395] res4e_branch2b_relu -> res4e_branch2b (in-place)
I0414 09:55:02.215076  1901 net.cpp:150] Setting up res4e_branch2b_relu
I0414 09:55:02.215085  1901 net.cpp:157] Top shape: 32 256 14 14 (1605632)
I0414 09:55:02.215088  1901 net.cpp:165] Memory required for data: 6647316608
I0414 09:55:02.215090  1901 layer_factory.hpp:77] Creating layer res4e_branch2c
I0414 09:55:02.215096  1901 net.cpp:100] Creating Layer res4e_branch2c
I0414 09:55:02.215100  1901 net.cpp:434] res4e_branch2c <- res4e_branch2b
I0414 09:55:02.215106  1901 net.cpp:408] res4e_branch2c -> res4e_branch2c
I0414 09:55:02.216579  1901 net.cpp:150] Setting up res4e_branch2c
I0414 09:55:02.216593  1901 net.cpp:157] Top shape: 32 1024 14 14 (6422528)
I0414 09:55:02.216595  1901 net.cpp:165] Memory required for data: 6673006720
I0414 09:55:02.216600  1901 layer_factory.hpp:77] Creating layer bn4e_branch2c
I0414 09:55:02.216605  1901 net.cpp:100] Creating Layer bn4e_branch2c
I0414 09:55:02.216609  1901 net.cpp:434] bn4e_branch2c <- res4e_branch2c
I0414 09:55:02.216614  1901 net.cpp:395] bn4e_branch2c -> res4e_branch2c (in-place)
I0414 09:55:02.216789  1901 net.cpp:150] Setting up bn4e_branch2c
I0414 09:55:02.216794  1901 net.cpp:157] Top shape: 32 1024 14 14 (6422528)
I0414 09:55:02.216796  1901 net.cpp:165] Memory required for data: 6698696832
I0414 09:55:02.216802  1901 layer_factory.hpp:77] Creating layer scale4e_branch2c
I0414 09:55:02.216807  1901 net.cpp:100] Creating Layer scale4e_branch2c
I0414 09:55:02.216810  1901 net.cpp:434] scale4e_branch2c <- res4e_branch2c
I0414 09:55:02.216814  1901 net.cpp:395] scale4e_branch2c -> res4e_branch2c (in-place)
I0414 09:55:02.216850  1901 layer_factory.hpp:77] Creating layer scale4e_branch2c
I0414 09:55:02.216950  1901 net.cpp:150] Setting up scale4e_branch2c
I0414 09:55:02.216955  1901 net.cpp:157] Top shape: 32 1024 14 14 (6422528)
I0414 09:55:02.216958  1901 net.cpp:165] Memory required for data: 6724386944
I0414 09:55:02.216962  1901 layer_factory.hpp:77] Creating layer res4e
I0414 09:55:02.216966  1901 net.cpp:100] Creating Layer res4e
I0414 09:55:02.216970  1901 net.cpp:434] res4e <- res4d_res4d_relu_0_split_1
I0414 09:55:02.216974  1901 net.cpp:434] res4e <- res4e_branch2c
I0414 09:55:02.216979  1901 net.cpp:408] res4e -> res4e
I0414 09:55:02.217000  1901 net.cpp:150] Setting up res4e
I0414 09:55:02.217005  1901 net.cpp:157] Top shape: 32 1024 14 14 (6422528)
I0414 09:55:02.217006  1901 net.cpp:165] Memory required for data: 6750077056
I0414 09:55:02.217010  1901 layer_factory.hpp:77] Creating layer res4e_relu
I0414 09:55:02.217015  1901 net.cpp:100] Creating Layer res4e_relu
I0414 09:55:02.217018  1901 net.cpp:434] res4e_relu <- res4e
I0414 09:55:02.217021  1901 net.cpp:395] res4e_relu -> res4e (in-place)
I0414 09:55:02.217164  1901 net.cpp:150] Setting up res4e_relu
I0414 09:55:02.217171  1901 net.cpp:157] Top shape: 32 1024 14 14 (6422528)
I0414 09:55:02.217173  1901 net.cpp:165] Memory required for data: 6775767168
I0414 09:55:02.217176  1901 layer_factory.hpp:77] Creating layer res4e_res4e_relu_0_split
I0414 09:55:02.217185  1901 net.cpp:100] Creating Layer res4e_res4e_relu_0_split
I0414 09:55:02.217188  1901 net.cpp:434] res4e_res4e_relu_0_split <- res4e
I0414 09:55:02.217192  1901 net.cpp:408] res4e_res4e_relu_0_split -> res4e_res4e_relu_0_split_0
I0414 09:55:02.217198  1901 net.cpp:408] res4e_res4e_relu_0_split -> res4e_res4e_relu_0_split_1
I0414 09:55:02.217233  1901 net.cpp:150] Setting up res4e_res4e_relu_0_split
I0414 09:55:02.217237  1901 net.cpp:157] Top shape: 32 1024 14 14 (6422528)
I0414 09:55:02.217243  1901 net.cpp:157] Top shape: 32 1024 14 14 (6422528)
I0414 09:55:02.217258  1901 net.cpp:165] Memory required for data: 6827147392
I0414 09:55:02.217262  1901 layer_factory.hpp:77] Creating layer res4f_branch2a
I0414 09:55:02.217268  1901 net.cpp:100] Creating Layer res4f_branch2a
I0414 09:55:02.217272  1901 net.cpp:434] res4f_branch2a <- res4e_res4e_relu_0_split_0
I0414 09:55:02.217278  1901 net.cpp:408] res4f_branch2a -> res4f_branch2a
I0414 09:55:02.219903  1901 net.cpp:150] Setting up res4f_branch2a
I0414 09:55:02.219915  1901 net.cpp:157] Top shape: 32 256 14 14 (1605632)
I0414 09:55:02.219918  1901 net.cpp:165] Memory required for data: 6833569920
I0414 09:55:02.219923  1901 layer_factory.hpp:77] Creating layer bn4f_branch2a
I0414 09:55:02.219929  1901 net.cpp:100] Creating Layer bn4f_branch2a
I0414 09:55:02.219933  1901 net.cpp:434] bn4f_branch2a <- res4f_branch2a
I0414 09:55:02.219938  1901 net.cpp:395] bn4f_branch2a -> res4f_branch2a (in-place)
I0414 09:55:02.220113  1901 net.cpp:150] Setting up bn4f_branch2a
I0414 09:55:02.220119  1901 net.cpp:157] Top shape: 32 256 14 14 (1605632)
I0414 09:55:02.220121  1901 net.cpp:165] Memory required for data: 6839992448
I0414 09:55:02.220129  1901 layer_factory.hpp:77] Creating layer scale4f_branch2a
I0414 09:55:02.220134  1901 net.cpp:100] Creating Layer scale4f_branch2a
I0414 09:55:02.220137  1901 net.cpp:434] scale4f_branch2a <- res4f_branch2a
I0414 09:55:02.220141  1901 net.cpp:395] scale4f_branch2a -> res4f_branch2a (in-place)
I0414 09:55:02.220180  1901 layer_factory.hpp:77] Creating layer scale4f_branch2a
I0414 09:55:02.220311  1901 net.cpp:150] Setting up scale4f_branch2a
I0414 09:55:02.220319  1901 net.cpp:157] Top shape: 32 256 14 14 (1605632)
I0414 09:55:02.220320  1901 net.cpp:165] Memory required for data: 6846414976
I0414 09:55:02.220326  1901 layer_factory.hpp:77] Creating layer res4f_branch2a_relu
I0414 09:55:02.220330  1901 net.cpp:100] Creating Layer res4f_branch2a_relu
I0414 09:55:02.220333  1901 net.cpp:434] res4f_branch2a_relu <- res4f_branch2a
I0414 09:55:02.220340  1901 net.cpp:395] res4f_branch2a_relu -> res4f_branch2a (in-place)
I0414 09:55:02.220490  1901 net.cpp:150] Setting up res4f_branch2a_relu
I0414 09:55:02.220497  1901 net.cpp:157] Top shape: 32 256 14 14 (1605632)
I0414 09:55:02.220500  1901 net.cpp:165] Memory required for data: 6852837504
I0414 09:55:02.220502  1901 layer_factory.hpp:77] Creating layer res4f_branch2b
I0414 09:55:02.220510  1901 net.cpp:100] Creating Layer res4f_branch2b
I0414 09:55:02.220513  1901 net.cpp:434] res4f_branch2b <- res4f_branch2a
I0414 09:55:02.220520  1901 net.cpp:408] res4f_branch2b -> res4f_branch2b
I0414 09:55:02.224191  1901 net.cpp:150] Setting up res4f_branch2b
I0414 09:55:02.224203  1901 net.cpp:157] Top shape: 32 256 14 14 (1605632)
I0414 09:55:02.224206  1901 net.cpp:165] Memory required for data: 6859260032
I0414 09:55:02.224211  1901 layer_factory.hpp:77] Creating layer bn4f_branch2b
I0414 09:55:02.224227  1901 net.cpp:100] Creating Layer bn4f_branch2b
I0414 09:55:02.224231  1901 net.cpp:434] bn4f_branch2b <- res4f_branch2b
I0414 09:55:02.224236  1901 net.cpp:395] bn4f_branch2b -> res4f_branch2b (in-place)
I0414 09:55:02.224411  1901 net.cpp:150] Setting up bn4f_branch2b
I0414 09:55:02.224417  1901 net.cpp:157] Top shape: 32 256 14 14 (1605632)
I0414 09:55:02.224419  1901 net.cpp:165] Memory required for data: 6865682560
I0414 09:55:02.224426  1901 layer_factory.hpp:77] Creating layer scale4f_branch2b
I0414 09:55:02.224432  1901 net.cpp:100] Creating Layer scale4f_branch2b
I0414 09:55:02.224436  1901 net.cpp:434] scale4f_branch2b <- res4f_branch2b
I0414 09:55:02.224439  1901 net.cpp:395] scale4f_branch2b -> res4f_branch2b (in-place)
I0414 09:55:02.224476  1901 layer_factory.hpp:77] Creating layer scale4f_branch2b
I0414 09:55:02.224576  1901 net.cpp:150] Setting up scale4f_branch2b
I0414 09:55:02.224581  1901 net.cpp:157] Top shape: 32 256 14 14 (1605632)
I0414 09:55:02.224583  1901 net.cpp:165] Memory required for data: 6872105088
I0414 09:55:02.224591  1901 layer_factory.hpp:77] Creating layer res4f_branch2b_relu
I0414 09:55:02.224597  1901 net.cpp:100] Creating Layer res4f_branch2b_relu
I0414 09:55:02.224611  1901 net.cpp:434] res4f_branch2b_relu <- res4f_branch2b
I0414 09:55:02.224616  1901 net.cpp:395] res4f_branch2b_relu -> res4f_branch2b (in-place)
I0414 09:55:02.224766  1901 net.cpp:150] Setting up res4f_branch2b_relu
I0414 09:55:02.224773  1901 net.cpp:157] Top shape: 32 256 14 14 (1605632)
I0414 09:55:02.224776  1901 net.cpp:165] Memory required for data: 6878527616
I0414 09:55:02.224778  1901 layer_factory.hpp:77] Creating layer res4f_branch2c
I0414 09:55:02.224786  1901 net.cpp:100] Creating Layer res4f_branch2c
I0414 09:55:02.224789  1901 net.cpp:434] res4f_branch2c <- res4f_branch2b
I0414 09:55:02.224798  1901 net.cpp:408] res4f_branch2c -> res4f_branch2c
I0414 09:55:02.226279  1901 net.cpp:150] Setting up res4f_branch2c
I0414 09:55:02.226290  1901 net.cpp:157] Top shape: 32 1024 14 14 (6422528)
I0414 09:55:02.226294  1901 net.cpp:165] Memory required for data: 6904217728
I0414 09:55:02.226299  1901 layer_factory.hpp:77] Creating layer bn4f_branch2c
I0414 09:55:02.226305  1901 net.cpp:100] Creating Layer bn4f_branch2c
I0414 09:55:02.226310  1901 net.cpp:434] bn4f_branch2c <- res4f_branch2c
I0414 09:55:02.226315  1901 net.cpp:395] bn4f_branch2c -> res4f_branch2c (in-place)
I0414 09:55:02.226491  1901 net.cpp:150] Setting up bn4f_branch2c
I0414 09:55:02.226497  1901 net.cpp:157] Top shape: 32 1024 14 14 (6422528)
I0414 09:55:02.226500  1901 net.cpp:165] Memory required for data: 6929907840
I0414 09:55:02.226538  1901 layer_factory.hpp:77] Creating layer scale4f_branch2c
I0414 09:55:02.226546  1901 net.cpp:100] Creating Layer scale4f_branch2c
I0414 09:55:02.226548  1901 net.cpp:434] scale4f_branch2c <- res4f_branch2c
I0414 09:55:02.226552  1901 net.cpp:395] scale4f_branch2c -> res4f_branch2c (in-place)
I0414 09:55:02.226588  1901 layer_factory.hpp:77] Creating layer scale4f_branch2c
I0414 09:55:02.226692  1901 net.cpp:150] Setting up scale4f_branch2c
I0414 09:55:02.226698  1901 net.cpp:157] Top shape: 32 1024 14 14 (6422528)
I0414 09:55:02.226701  1901 net.cpp:165] Memory required for data: 6955597952
I0414 09:55:02.226706  1901 layer_factory.hpp:77] Creating layer res4f
I0414 09:55:02.226709  1901 net.cpp:100] Creating Layer res4f
I0414 09:55:02.226712  1901 net.cpp:434] res4f <- res4e_res4e_relu_0_split_1
I0414 09:55:02.226716  1901 net.cpp:434] res4f <- res4f_branch2c
I0414 09:55:02.226722  1901 net.cpp:408] res4f -> res4f
I0414 09:55:02.226742  1901 net.cpp:150] Setting up res4f
I0414 09:55:02.226747  1901 net.cpp:157] Top shape: 32 1024 14 14 (6422528)
I0414 09:55:02.226749  1901 net.cpp:165] Memory required for data: 6981288064
I0414 09:55:02.226752  1901 layer_factory.hpp:77] Creating layer res4f_relu
I0414 09:55:02.226758  1901 net.cpp:100] Creating Layer res4f_relu
I0414 09:55:02.226760  1901 net.cpp:434] res4f_relu <- res4f
I0414 09:55:02.226763  1901 net.cpp:395] res4f_relu -> res4f (in-place)
I0414 09:55:02.226907  1901 net.cpp:150] Setting up res4f_relu
I0414 09:55:02.226913  1901 net.cpp:157] Top shape: 32 1024 14 14 (6422528)
I0414 09:55:02.226915  1901 net.cpp:165] Memory required for data: 7006978176
I0414 09:55:02.226918  1901 layer_factory.hpp:77] Creating layer res4f_res4f_relu_0_split
I0414 09:55:02.226924  1901 net.cpp:100] Creating Layer res4f_res4f_relu_0_split
I0414 09:55:02.226927  1901 net.cpp:434] res4f_res4f_relu_0_split <- res4f
I0414 09:55:02.226932  1901 net.cpp:408] res4f_res4f_relu_0_split -> res4f_res4f_relu_0_split_0
I0414 09:55:02.226938  1901 net.cpp:408] res4f_res4f_relu_0_split -> res4f_res4f_relu_0_split_1
I0414 09:55:02.226974  1901 net.cpp:150] Setting up res4f_res4f_relu_0_split
I0414 09:55:02.226979  1901 net.cpp:157] Top shape: 32 1024 14 14 (6422528)
I0414 09:55:02.226981  1901 net.cpp:157] Top shape: 32 1024 14 14 (6422528)
I0414 09:55:02.226984  1901 net.cpp:165] Memory required for data: 7058358400
I0414 09:55:02.226986  1901 layer_factory.hpp:77] Creating layer res5a_branch1
I0414 09:55:02.226996  1901 net.cpp:100] Creating Layer res5a_branch1
I0414 09:55:02.227004  1901 net.cpp:434] res5a_branch1 <- res4f_res4f_relu_0_split_0
I0414 09:55:02.227020  1901 net.cpp:408] res5a_branch1 -> res5a_branch1
I0414 09:55:02.232975  1901 net.cpp:150] Setting up res5a_branch1
I0414 09:55:02.232986  1901 net.cpp:157] Top shape: 32 2048 7 7 (3211264)
I0414 09:55:02.232990  1901 net.cpp:165] Memory required for data: 7071203456
I0414 09:55:02.232993  1901 layer_factory.hpp:77] Creating layer bn5a_branch1
I0414 09:55:02.233001  1901 net.cpp:100] Creating Layer bn5a_branch1
I0414 09:55:02.233005  1901 net.cpp:434] bn5a_branch1 <- res5a_branch1
I0414 09:55:02.233011  1901 net.cpp:395] bn5a_branch1 -> res5a_branch1 (in-place)
I0414 09:55:02.233203  1901 net.cpp:150] Setting up bn5a_branch1
I0414 09:55:02.233209  1901 net.cpp:157] Top shape: 32 2048 7 7 (3211264)
I0414 09:55:02.233212  1901 net.cpp:165] Memory required for data: 7084048512
I0414 09:55:02.233218  1901 layer_factory.hpp:77] Creating layer scale5a_branch1
I0414 09:55:02.233225  1901 net.cpp:100] Creating Layer scale5a_branch1
I0414 09:55:02.233228  1901 net.cpp:434] scale5a_branch1 <- res5a_branch1
I0414 09:55:02.233232  1901 net.cpp:395] scale5a_branch1 -> res5a_branch1 (in-place)
I0414 09:55:02.233269  1901 layer_factory.hpp:77] Creating layer scale5a_branch1
I0414 09:55:02.233376  1901 net.cpp:150] Setting up scale5a_branch1
I0414 09:55:02.233381  1901 net.cpp:157] Top shape: 32 2048 7 7 (3211264)
I0414 09:55:02.233383  1901 net.cpp:165] Memory required for data: 7096893568
I0414 09:55:02.233387  1901 layer_factory.hpp:77] Creating layer res5a_branch2a
I0414 09:55:02.233395  1901 net.cpp:100] Creating Layer res5a_branch2a
I0414 09:55:02.233398  1901 net.cpp:434] res5a_branch2a <- res4f_res4f_relu_0_split_1
I0414 09:55:02.233402  1901 net.cpp:408] res5a_branch2a -> res5a_branch2a
I0414 09:55:02.236158  1901 net.cpp:150] Setting up res5a_branch2a
I0414 09:55:02.236173  1901 net.cpp:157] Top shape: 32 512 7 7 (802816)
I0414 09:55:02.236176  1901 net.cpp:165] Memory required for data: 7100104832
I0414 09:55:02.236181  1901 layer_factory.hpp:77] Creating layer bn5a_branch2a
I0414 09:55:02.236186  1901 net.cpp:100] Creating Layer bn5a_branch2a
I0414 09:55:02.236191  1901 net.cpp:434] bn5a_branch2a <- res5a_branch2a
I0414 09:55:02.236194  1901 net.cpp:395] bn5a_branch2a -> res5a_branch2a (in-place)
I0414 09:55:02.236379  1901 net.cpp:150] Setting up bn5a_branch2a
I0414 09:55:02.236385  1901 net.cpp:157] Top shape: 32 512 7 7 (802816)
I0414 09:55:02.236388  1901 net.cpp:165] Memory required for data: 7103316096
I0414 09:55:02.236394  1901 layer_factory.hpp:77] Creating layer scale5a_branch2a
I0414 09:55:02.236399  1901 net.cpp:100] Creating Layer scale5a_branch2a
I0414 09:55:02.236402  1901 net.cpp:434] scale5a_branch2a <- res5a_branch2a
I0414 09:55:02.236407  1901 net.cpp:395] scale5a_branch2a -> res5a_branch2a (in-place)
I0414 09:55:02.236443  1901 layer_factory.hpp:77] Creating layer scale5a_branch2a
I0414 09:55:02.236548  1901 net.cpp:150] Setting up scale5a_branch2a
I0414 09:55:02.236554  1901 net.cpp:157] Top shape: 32 512 7 7 (802816)
I0414 09:55:02.236557  1901 net.cpp:165] Memory required for data: 7106527360
I0414 09:55:02.236562  1901 layer_factory.hpp:77] Creating layer res5a_branch2a_relu
I0414 09:55:02.236565  1901 net.cpp:100] Creating Layer res5a_branch2a_relu
I0414 09:55:02.236568  1901 net.cpp:434] res5a_branch2a_relu <- res5a_branch2a
I0414 09:55:02.236573  1901 net.cpp:395] res5a_branch2a_relu -> res5a_branch2a (in-place)
I0414 09:55:02.237437  1901 net.cpp:150] Setting up res5a_branch2a_relu
I0414 09:55:02.237447  1901 net.cpp:157] Top shape: 32 512 7 7 (802816)
I0414 09:55:02.237449  1901 net.cpp:165] Memory required for data: 7109738624
I0414 09:55:02.237452  1901 layer_factory.hpp:77] Creating layer res5a_branch2b
I0414 09:55:02.237463  1901 net.cpp:100] Creating Layer res5a_branch2b
I0414 09:55:02.237468  1901 net.cpp:434] res5a_branch2b <- res5a_branch2a
I0414 09:55:02.237471  1901 net.cpp:408] res5a_branch2b -> res5a_branch2b
I0414 09:55:02.243119  1901 net.cpp:150] Setting up res5a_branch2b
I0414 09:55:02.243132  1901 net.cpp:157] Top shape: 32 512 7 7 (802816)
I0414 09:55:02.243149  1901 net.cpp:165] Memory required for data: 7112949888
I0414 09:55:02.243155  1901 layer_factory.hpp:77] Creating layer bn5a_branch2b
I0414 09:55:02.243162  1901 net.cpp:100] Creating Layer bn5a_branch2b
I0414 09:55:02.243166  1901 net.cpp:434] bn5a_branch2b <- res5a_branch2b
I0414 09:55:02.243170  1901 net.cpp:395] bn5a_branch2b -> res5a_branch2b (in-place)
I0414 09:55:02.243350  1901 net.cpp:150] Setting up bn5a_branch2b
I0414 09:55:02.243356  1901 net.cpp:157] Top shape: 32 512 7 7 (802816)
I0414 09:55:02.243360  1901 net.cpp:165] Memory required for data: 7116161152
I0414 09:55:02.243366  1901 layer_factory.hpp:77] Creating layer scale5a_branch2b
I0414 09:55:02.243369  1901 net.cpp:100] Creating Layer scale5a_branch2b
I0414 09:55:02.243372  1901 net.cpp:434] scale5a_branch2b <- res5a_branch2b
I0414 09:55:02.243378  1901 net.cpp:395] scale5a_branch2b -> res5a_branch2b (in-place)
I0414 09:55:02.243412  1901 layer_factory.hpp:77] Creating layer scale5a_branch2b
I0414 09:55:02.243516  1901 net.cpp:150] Setting up scale5a_branch2b
I0414 09:55:02.243521  1901 net.cpp:157] Top shape: 32 512 7 7 (802816)
I0414 09:55:02.243525  1901 net.cpp:165] Memory required for data: 7119372416
I0414 09:55:02.243530  1901 layer_factory.hpp:77] Creating layer res5a_branch2b_relu
I0414 09:55:02.243533  1901 net.cpp:100] Creating Layer res5a_branch2b_relu
I0414 09:55:02.243536  1901 net.cpp:434] res5a_branch2b_relu <- res5a_branch2b
I0414 09:55:02.243540  1901 net.cpp:395] res5a_branch2b_relu -> res5a_branch2b (in-place)
I0414 09:55:02.244426  1901 net.cpp:150] Setting up res5a_branch2b_relu
I0414 09:55:02.244437  1901 net.cpp:157] Top shape: 32 512 7 7 (802816)
I0414 09:55:02.244441  1901 net.cpp:165] Memory required for data: 7122583680
I0414 09:55:02.244443  1901 layer_factory.hpp:77] Creating layer res5a_branch2c
I0414 09:55:02.244451  1901 net.cpp:100] Creating Layer res5a_branch2c
I0414 09:55:02.244454  1901 net.cpp:434] res5a_branch2c <- res5a_branch2b
I0414 09:55:02.244459  1901 net.cpp:408] res5a_branch2c -> res5a_branch2c
I0414 09:55:02.248281  1901 net.cpp:150] Setting up res5a_branch2c
I0414 09:55:02.248294  1901 net.cpp:157] Top shape: 32 2048 7 7 (3211264)
I0414 09:55:02.248297  1901 net.cpp:165] Memory required for data: 7135428736
I0414 09:55:02.248301  1901 layer_factory.hpp:77] Creating layer bn5a_branch2c
I0414 09:55:02.248309  1901 net.cpp:100] Creating Layer bn5a_branch2c
I0414 09:55:02.248312  1901 net.cpp:434] bn5a_branch2c <- res5a_branch2c
I0414 09:55:02.248317  1901 net.cpp:395] bn5a_branch2c -> res5a_branch2c (in-place)
I0414 09:55:02.248499  1901 net.cpp:150] Setting up bn5a_branch2c
I0414 09:55:02.248505  1901 net.cpp:157] Top shape: 32 2048 7 7 (3211264)
I0414 09:55:02.248508  1901 net.cpp:165] Memory required for data: 7148273792
I0414 09:55:02.248514  1901 layer_factory.hpp:77] Creating layer scale5a_branch2c
I0414 09:55:02.248518  1901 net.cpp:100] Creating Layer scale5a_branch2c
I0414 09:55:02.248522  1901 net.cpp:434] scale5a_branch2c <- res5a_branch2c
I0414 09:55:02.248528  1901 net.cpp:395] scale5a_branch2c -> res5a_branch2c (in-place)
I0414 09:55:02.248563  1901 layer_factory.hpp:77] Creating layer scale5a_branch2c
I0414 09:55:02.248669  1901 net.cpp:150] Setting up scale5a_branch2c
I0414 09:55:02.248675  1901 net.cpp:157] Top shape: 32 2048 7 7 (3211264)
I0414 09:55:02.248677  1901 net.cpp:165] Memory required for data: 7161118848
I0414 09:55:02.248682  1901 layer_factory.hpp:77] Creating layer res5a
I0414 09:55:02.248687  1901 net.cpp:100] Creating Layer res5a
I0414 09:55:02.248690  1901 net.cpp:434] res5a <- res5a_branch1
I0414 09:55:02.248693  1901 net.cpp:434] res5a <- res5a_branch2c
I0414 09:55:02.248697  1901 net.cpp:408] res5a -> res5a
I0414 09:55:02.248721  1901 net.cpp:150] Setting up res5a
…
I0414 09:55:02.602675  1901 layer_factory.hpp:77] Creating layer res4d_branch2a
I0414 09:55:02.602684  1901 net.cpp:100] Creating Layer res4d_branch2a
I0414 09:55:02.602687  1901 net.cpp:434] res4d_branch2a <- res4c_res4c_relu_0_split_0
I0414 09:55:02.602695  1901 net.cpp:408] res4d_branch2a -> res4d_branch2a
I0414 09:55:02.604882  1901 net.cpp:150] Setting up res4d_branch2a
I0414 09:55:02.604898  1901 net.cpp:157] Top shape: 12 256 14 14 (602112)
I0414 09:55:02.604902  1901 net.cpp:165] Memory required for data: 2389180560
I0414 09:55:02.604908  1901 layer_factory.hpp:77] Creating layer bn4d_branch2a
I0414 09:55:02.604917  1901 net.cpp:100] Creating Layer bn4d_branch2a
I0414 09:55:02.604921  1901 net.cpp:434] bn4d_branch2a <- res4d_branch2a
I0414 09:55:02.604929  1901 net.cpp:395] bn4d_branch2a -> res4d_branch2a (in-place)
I0414 09:55:02.605228  1901 net.cpp:150] Setting up bn4d_branch2a
I0414 09:55:02.605237  1901 net.cpp:157] Top shape: 12 256 14 14 (602112)
I0414 09:55:02.605242  1901 net.cpp:165] Memory required for data: 2391589008
I0414 09:55:02.605249  1901 layer_factory.hpp:77] Creating layer scale4d_branch2a
I0414 09:55:02.605257  1901 net.cpp:100] Creating Layer scale4d_branch2a
I0414 09:55:02.605260  1901 net.cpp:434] scale4d_branch2a <- res4d_branch2a
I0414 09:55:02.605265  1901 net.cpp:395] scale4d_branch2a -> res4d_branch2a (in-place)
I0414 09:55:02.605329  1901 layer_factory.hpp:77] Creating layer scale4d_branch2a
I0414 09:55:02.605492  1901 net.cpp:150] Setting up scale4d_branch2a
I0414 09:55:02.605500  1901 net.cpp:157] Top shape: 12 256 14 14 (602112)
I0414 09:55:02.605504  1901 net.cpp:165] Memory required for data: 2393997456
I0414 09:55:02.605510  1901 layer_factory.hpp:77] Creating layer res4d_branch2a_relu
I0414 09:55:02.605516  1901 net.cpp:100] Creating Layer res4d_branch2a_relu
I0414 09:55:02.605520  1901 net.cpp:434] res4d_branch2a_relu <- res4d_branch2a
I0414 09:55:02.605527  1901 net.cpp:395] res4d_branch2a_relu -> res4d_branch2a (in-place)
I0414 09:55:02.605741  1901 net.cpp:150] Setting up res4d_branch2a_relu
I0414 09:55:02.605751  1901 net.cpp:157] Top shape: 12 256 14 14 (602112)
I0414 09:55:02.605754  1901 net.cpp:165] Memory required for data: 2396405904
I0414 09:55:02.605758  1901 layer_factory.hpp:77] Creating layer res4d_branch2b
I0414 09:55:02.605769  1901 net.cpp:100] Creating Layer res4d_branch2b
I0414 09:55:02.605773  1901 net.cpp:434] res4d_branch2b <- res4d_branch2a
I0414 09:55:02.605783  1901 net.cpp:408] res4d_branch2b -> res4d_branch2b
I0414 09:55:02.610891  1901 net.cpp:150] Setting up res4d_branch2b
I0414 09:55:02.610922  1901 net.cpp:157] Top shape: 12 256 14 14 (602112)
I0414 09:55:02.610926  1901 net.cpp:165] Memory required for data: 2398814352
I0414 09:55:02.610934  1901 layer_factory.hpp:77] Creating layer bn4d_branch2b
I0414 09:55:02.610940  1901 net.cpp:100] Creating Layer bn4d_branch2b
I0414 09:55:02.610945  1901 net.cpp:434] bn4d_branch2b <- res4d_branch2b
I0414 09:55:02.610954  1901 net.cpp:395] bn4d_branch2b -> res4d_branch2b (in-place)
I0414 09:55:02.611243  1901 net.cpp:150] Setting up bn4d_branch2b
I0414 09:55:02.611251  1901 net.cpp:157] Top shape: 12 256 14 14 (602112)
I0414 09:55:02.611254  1901 net.cpp:165] Memory required for data: 2401222800
I0414 09:55:02.611263  1901 layer_factory.hpp:77] Creating layer scale4d_branch2b
I0414 09:55:02.611269  1901 net.cpp:100] Creating Layer scale4d_branch2b
I0414 09:55:02.611274  1901 net.cpp:434] scale4d_branch2b <- res4d_branch2b
I0414 09:55:02.611279  1901 net.cpp:395] scale4d_branch2b -> res4d_branch2b (in-place)
I0414 09:55:02.611340  1901 layer_factory.hpp:77] Creating layer scale4d_branch2b
I0414 09:55:02.611503  1901 net.cpp:150] Setting up scale4d_branch2b
I0414 09:55:02.611511  1901 net.cpp:157] Top shape: 12 256 14 14 (602112)
I0414 09:55:02.611515  1901 net.cpp:165] Memory required for data: 2403631248
I0414 09:55:02.611521  1901 layer_factory.hpp:77] Creating layer res4d_branch2b_relu
I0414 09:55:02.611526  1901 net.cpp:100] Creating Layer res4d_branch2b_relu
I0414 09:55:02.611531  1901 net.cpp:434] res4d_branch2b_relu <- res4d_branch2b
I0414 09:55:02.611537  1901 net.cpp:395] res4d_branch2b_relu -> res4d_branch2b (in-place)
I0414 09:55:02.612759  1901 net.cpp:150] Setting up res4d_branch2b_relu
I0414 09:55:02.612774  1901 net.cpp:157] Top shape: 12 256 14 14 (602112)
I0414 09:55:02.612777  1901 net.cpp:165] Memory required for data: 2406039696
I0414 09:55:02.612782  1901 layer_factory.hpp:77] Creating layer res4d_branch2c
I0414 09:55:02.612793  1901 net.cpp:100] Creating Layer res4d_branch2c
I0414 09:55:02.612797  1901 net.cpp:434] res4d_branch2c <- res4d_branch2b
I0414 09:55:02.612804  1901 net.cpp:408] res4d_branch2c -> res4d_branch2c
I0414 09:55:02.620839  1901 net.cpp:150] Setting up res4d_branch2c
I0414 09:55:02.620858  1901 net.cpp:157] Top shape: 12 1024 14 14 (2408448)
I0414 09:55:02.620862  1901 net.cpp:165] Memory required for data: 2415673488
I0414 09:55:02.620869  1901 layer_factory.hpp:77] Creating layer bn4d_branch2c
I0414 09:55:02.620877  1901 net.cpp:100] Creating Layer bn4d_branch2c
I0414 09:55:02.620882  1901 net.cpp:434] bn4d_branch2c <- res4d_branch2c
I0414 09:55:02.620890  1901 net.cpp:395] bn4d_branch2c -> res4d_branch2c (in-place)
I0414 09:55:02.621187  1901 net.cpp:150] Setting up bn4d_branch2c
I0414 09:55:02.621196  1901 net.cpp:157] Top shape: 12 1024 14 14 (2408448)
I0414 09:55:02.621198  1901 net.cpp:165] Memory required for data: 2425307280
I0414 09:55:02.621207  1901 layer_factory.hpp:77] Creating layer scale4d_branch2c
I0414 09:55:02.621213  1901 net.cpp:100] Creating Layer scale4d_branch2c
I0414 09:55:02.621217  1901 net.cpp:434] scale4d_branch2c <- res4d_branch2c
I0414 09:55:02.621222  1901 net.cpp:395] scale4d_branch2c -> res4d_branch2c (in-place)
I0414 09:55:02.621281  1901 layer_factory.hpp:77] Creating layer scale4d_branch2c
I0414 09:55:02.621449  1901 net.cpp:150] Setting up scale4d_branch2c
I0414 09:55:02.621456  1901 net.cpp:157] Top shape: 12 1024 14 14 (2408448)
I0414 09:55:02.621459  1901 net.cpp:165] Memory required for data: 2434941072
I0414 09:55:02.621465  1901 layer_factory.hpp:77] Creating layer res4d
I0414 09:55:02.621471  1901 net.cpp:100] Creating Layer res4d
I0414 09:55:02.621475  1901 net.cpp:434] res4d <- res4c_res4c_relu_0_split_1
I0414 09:55:02.621480  1901 net.cpp:434] res4d <- res4d_branch2c
I0414 09:55:02.621487  1901 net.cpp:408] res4d -> res4d
I0414 09:55:02.621522  1901 net.cpp:150] Setting up res4d
I0414 09:55:02.621528  1901 net.cpp:157] Top shape: 12 1024 14 14 (2408448)
I0414 09:55:02.621536  1901 net.cpp:165] Memory required for data: 2444574864
I0414 09:55:02.621557  1901 layer_factory.hpp:77] Creating layer res4d_relu
I0414 09:55:02.621567  1901 net.cpp:100] Creating Layer res4d_relu
I0414 09:55:02.621570  1901 net.cpp:434] res4d_relu <- res4d
I0414 09:55:02.621575  1901 net.cpp:395] res4d_relu -> res4d (in-place)
I0414 09:55:02.621793  1901 net.cpp:150] Setting up res4d_relu
I0414 09:55:02.621803  1901 net.cpp:157] Top shape: 12 1024 14 14 (2408448)
I0414 09:55:02.621806  1901 net.cpp:165] Memory required for data: 2454208656
I0414 09:55:02.621810  1901 layer_factory.hpp:77] Creating layer res4d_res4d_relu_0_split
I0414 09:55:02.621816  1901 net.cpp:100] Creating Layer res4d_res4d_relu_0_split
I0414 09:55:02.621820  1901 net.cpp:434] res4d_res4d_relu_0_split <- res4d
I0414 09:55:02.621829  1901 net.cpp:408] res4d_res4d_relu_0_split -> res4d_res4d_relu_0_split_0
I0414 09:55:02.621834  1901 net.cpp:408] res4d_res4d_relu_0_split -> res4d_res4d_relu_0_split_1
I0414 09:55:02.621896  1901 net.cpp:150] Setting up res4d_res4d_relu_0_split
I0414 09:55:02.621903  1901 net.cpp:157] Top shape: 12 1024 14 14 (2408448)
I0414 09:55:02.621909  1901 net.cpp:157] Top shape: 12 1024 14 14 (2408448)
I0414 09:55:02.621912  1901 net.cpp:165] Memory required for data: 2473476240
I0414 09:55:02.621917  1901 layer_factory.hpp:77] Creating layer res4e_branch2a
I0414 09:55:02.621924  1901 net.cpp:100] Creating Layer res4e_branch2a
I0414 09:55:02.621928  1901 net.cpp:434] res4e_branch2a <- res4d_res4d_relu_0_split_0
I0414 09:55:02.621935  1901 net.cpp:408] res4e_branch2a -> res4e_branch2a
I0414 09:55:02.624053  1901 net.cpp:150] Setting up res4e_branch2a
I0414 09:55:02.624068  1901 net.cpp:157] Top shape: 12 256 14 14 (602112)
I0414 09:55:02.624071  1901 net.cpp:165] Memory required for data: 2475884688
I0414 09:55:02.624078  1901 layer_factory.hpp:77] Creating layer bn4e_branch2a
I0414 09:55:02.624088  1901 net.cpp:100] Creating Layer bn4e_branch2a
I0414 09:55:02.624092  1901 net.cpp:434] bn4e_branch2a <- res4e_branch2a
I0414 09:55:02.624097  1901 net.cpp:395] bn4e_branch2a -> res4e_branch2a (in-place)
I0414 09:55:02.624408  1901 net.cpp:150] Setting up bn4e_branch2a
I0414 09:55:02.624416  1901 net.cpp:157] Top shape: 12 256 14 14 (602112)
I0414 09:55:02.624419  1901 net.cpp:165] Memory required for data: 2478293136
I0414 09:55:02.624428  1901 layer_factory.hpp:77] Creating layer scale4e_branch2a
I0414 09:55:02.624434  1901 net.cpp:100] Creating Layer scale4e_branch2a
I0414 09:55:02.624439  1901 net.cpp:434] scale4e_branch2a <- res4e_branch2a
I0414 09:55:02.624444  1901 net.cpp:395] scale4e_branch2a -> res4e_branch2a (in-place)
I0414 09:55:02.624506  1901 layer_factory.hpp:77] Creating layer scale4e_branch2a
I0414 09:55:02.624666  1901 net.cpp:150] Setting up scale4e_branch2a
I0414 09:55:02.624675  1901 net.cpp:157] Top shape: 12 256 14 14 (602112)
I0414 09:55:02.624677  1901 net.cpp:165] Memory required for data: 2480701584
I0414 09:55:02.624683  1901 layer_factory.hpp:77] Creating layer res4e_branch2a_relu
I0414 09:55:02.624691  1901 net.cpp:100] Creating Layer res4e_branch2a_relu
I0414 09:55:02.624696  1901 net.cpp:434] res4e_branch2a_relu <- res4e_branch2a
I0414 09:55:02.624701  1901 net.cpp:395] res4e_branch2a_relu -> res4e_branch2a (in-place)
I0414 09:55:02.624910  1901 net.cpp:150] Setting up res4e_branch2a_relu
I0414 09:55:02.624922  1901 net.cpp:157] Top shape: 12 256 14 14 (602112)
I0414 09:55:02.624924  1901 net.cpp:165] Memory required for data: 2483110032
I0414 09:55:02.624928  1901 layer_factory.hpp:77] Creating layer res4e_branch2b
I0414 09:55:02.624938  1901 net.cpp:100] Creating Layer res4e_branch2b
I0414 09:55:02.624943  1901 net.cpp:434] res4e_branch2b <- res4e_branch2a
I0414 09:55:02.624948  1901 net.cpp:408] res4e_branch2b -> res4e_branch2b
I0414 09:55:02.629966  1901 net.cpp:150] Setting up res4e_branch2b
I0414 09:55:02.629983  1901 net.cpp:157] Top shape: 12 256 14 14 (602112)
I0414 09:55:02.629987  1901 net.cpp:165] Memory required for data: 2485518480
I0414 09:55:02.629997  1901 layer_factory.hpp:77] Creating layer bn4e_branch2b
I0414 09:55:02.630005  1901 net.cpp:100] Creating Layer bn4e_branch2b
I0414 09:55:02.630025  1901 net.cpp:434] bn4e_branch2b <- res4e_branch2b
I0414 09:55:02.630034  1901 net.cpp:395] bn4e_branch2b -> res4e_branch2b (in-place)
I0414 09:55:02.630332  1901 net.cpp:150] Setting up bn4e_branch2b
I0414 09:55:02.630340  1901 net.cpp:157] Top shape: 12 256 14 14 (602112)
I0414 09:55:02.630344  1901 net.cpp:165] Memory required for data: 2487926928
I0414 09:55:02.630352  1901 layer_factory.hpp:77] Creating layer scale4e_branch2b
I0414 09:55:02.630359  1901 net.cpp:100] Creating Layer scale4e_branch2b
I0414 09:55:02.630363  1901 net.cpp:434] scale4e_branch2b <- res4e_branch2b
I0414 09:55:02.630368  1901 net.cpp:395] scale4e_branch2b -> res4e_branch2b (in-place)
I0414 09:55:02.630429  1901 layer_factory.hpp:77] Creating layer scale4e_branch2b
I0414 09:55:02.630594  1901 net.cpp:150] Setting up scale4e_branch2b
I0414 09:55:02.630602  1901 net.cpp:157] Top shape: 12 256 14 14 (602112)
I0414 09:55:02.630605  1901 net.cpp:165] Memory required for data: 2490335376
I0414 09:55:02.630612  1901 layer_factory.hpp:77] Creating layer res4e_branch2b_relu
I0414 09:55:02.630619  1901 net.cpp:100] Creating Layer res4e_branch2b_relu
I0414 09:55:02.630622  1901 net.cpp:434] res4e_branch2b_relu <- res4e_branch2b
I0414 09:55:02.630628  1901 net.cpp:395] res4e_branch2b_relu -> res4e_branch2b (in-place)
I0414 09:55:02.630846  1901 net.cpp:150] Setting up res4e_branch2b_relu
I0414 09:55:02.630856  1901 net.cpp:157] Top shape: 12 256 14 14 (602112)
I0414 09:55:02.630859  1901 net.cpp:165] Memory required for data: 2492743824
I0414 09:55:02.630863  1901 layer_factory.hpp:77] Creating layer res4e_branch2c
I0414 09:55:02.630873  1901 net.cpp:100] Creating Layer res4e_branch2c
I0414 09:55:02.630877  1901 net.cpp:434] res4e_branch2c <- res4e_branch2b
I0414 09:55:02.630883  1901 net.cpp:408] res4e_branch2c -> res4e_branch2c
I0414 09:55:02.634551  1901 net.cpp:150] Setting up res4e_branch2c
I0414 09:55:02.634567  1901 net.cpp:157] Top shape: 12 1024 14 14 (2408448)
I0414 09:55:02.634570  1901 net.cpp:165] Memory required for data: 2502377616
I0414 09:55:02.634577  1901 layer_factory.hpp:77] Creating layer bn4e_branch2c
I0414 09:55:02.634587  1901 net.cpp:100] Creating Layer bn4e_branch2c
I0414 09:55:02.634591  1901 net.cpp:434] bn4e_branch2c <- res4e_branch2c
I0414 09:55:02.634598  1901 net.cpp:395] bn4e_branch2c -> res4e_branch2c (in-place)
I0414 09:55:02.634887  1901 net.cpp:150] Setting up bn4e_branch2c
I0414 09:55:02.634896  1901 net.cpp:157] Top shape: 12 1024 14 14 (2408448)
I0414 09:55:02.634898  1901 net.cpp:165] Memory required for data: 2512011408
I0414 09:55:02.634907  1901 layer_factory.hpp:77] Creating layer scale4e_branch2c
I0414 09:55:02.634915  1901 net.cpp:100] Creating Layer scale4e_branch2c
I0414 09:55:02.634919  1901 net.cpp:434] scale4e_branch2c <- res4e_branch2c
I0414 09:55:02.634925  1901 net.cpp:395] scale4e_branch2c -> res4e_branch2c (in-place)
I0414 09:55:02.634980  1901 layer_factory.hpp:77] Creating layer scale4e_branch2c
I0414 09:55:02.635154  1901 net.cpp:150] Setting up scale4e_branch2c
I0414 09:55:02.635162  1901 net.cpp:157] Top shape: 12 1024 14 14 (2408448)
I0414 09:55:02.635165  1901 net.cpp:165] Memory required for data: 2521645200
I0414 09:55:02.635171  1901 layer_factory.hpp:77] Creating layer res4e
I0414 09:55:02.635177  1901 net.cpp:100] Creating Layer res4e
I0414 09:55:02.635181  1901 net.cpp:434] res4e <- res4d_res4d_relu_0_split_1
I0414 09:55:02.635186  1901 net.cpp:434] res4e <- res4e_branch2c
I0414 09:55:02.635193  1901 net.cpp:408] res4e -> res4e
I0414 09:55:02.635228  1901 net.cpp:150] Setting up res4e
I0414 09:55:02.635237  1901 net.cpp:157] Top shape: 12 1024 14 14 (2408448)
I0414 09:55:02.635241  1901 net.cpp:165] Memory required for data: 2531278992
I0414 09:55:02.635244  1901 layer_factory.hpp:77] Creating layer res4e_relu
I0414 09:55:02.635251  1901 net.cpp:100] Creating Layer res4e_relu
I0414 09:55:02.635254  1901 net.cpp:434] res4e_relu <- res4e
I0414 09:55:02.635262  1901 net.cpp:395] res4e_relu -> res4e (in-place)
I0414 09:55:02.635496  1901 net.cpp:150] Setting up res4e_relu
I0414 09:55:02.635506  1901 net.cpp:157] Top shape: 12 1024 14 14 (2408448)
I0414 09:55:02.635509  1901 net.cpp:165] Memory required for data: 2540912784
I0414 09:55:02.635514  1901 layer_factory.hpp:77] Creating layer res4e_res4e_relu_0_split
I0414 09:55:02.635519  1901 net.cpp:100] Creating Layer res4e_res4e_relu_0_split
I0414 09:55:02.635524  1901 net.cpp:434] res4e_res4e_relu_0_split <- res4e
I0414 09:55:02.635529  1901 net.cpp:408] res4e_res4e_relu_0_split -> res4e_res4e_relu_0_split_0
I0414 09:55:02.635537  1901 net.cpp:408] res4e_res4e_relu_0_split -> res4e_res4e_relu_0_split_1
I0414 09:55:02.635601  1901 net.cpp:150] Setting up res4e_res4e_relu_0_split
I0414 09:55:02.635607  1901 net.cpp:157] Top shape: 12 1024 14 14 (2408448)
I0414 09:55:02.635610  1901 net.cpp:157] Top shape: 12 1024 14 14 (2408448)
I0414 09:55:02.635614  1901 net.cpp:165] Memory required for data: 2560180368
I0414 09:55:02.635617  1901 layer_factory.hpp:77] Creating layer res4f_branch2a
I0414 09:55:02.635627  1901 net.cpp:100] Creating Layer res4f_branch2a
I0414 09:55:02.635632  1901 net.cpp:434] res4f_branch2a <- res4e_res4e_relu_0_split_0
I0414 09:55:02.635638  1901 net.cpp:408] res4f_branch2a -> res4f_branch2a
I0414 09:55:02.638800  1901 net.cpp:150] Setting up res4f_branch2a
I0414 09:55:02.638815  1901 net.cpp:157] Top shape: 12 256 14 14 (602112)
I0414 09:55:02.638819  1901 net.cpp:165] Memory required for data: 2562588816
I0414 09:55:02.638825  1901 layer_factory.hpp:77] Creating layer bn4f_branch2a
I0414 09:55:02.638835  1901 net.cpp:100] Creating Layer bn4f_branch2a
I0414 09:55:02.638840  1901 net.cpp:434] bn4f_branch2a <- res4f_branch2a
I0414 09:55:02.638845  1901 net.cpp:395] bn4f_branch2a -> res4f_branch2a (in-place)
I0414 09:55:02.639137  1901 net.cpp:150] Setting up bn4f_branch2a
I0414 09:55:02.639144  1901 net.cpp:157] Top shape: 12 256 14 14 (602112)
I0414 09:55:02.639148  1901 net.cpp:165] Memory required for data: 2564997264
I0414 09:55:02.639158  1901 layer_factory.hpp:77] Creating layer scale4f_branch2a
I0414 09:55:02.639165  1901 net.cpp:100] Creating Layer scale4f_branch2a
I0414 09:55:02.639169  1901 net.cpp:434] scale4f_branch2a <- res4f_branch2a
I0414 09:55:02.639174  1901 net.cpp:395] scale4f_branch2a -> res4f_branch2a (in-place)
I0414 09:55:02.639235  1901 layer_factory.hpp:77] Creating layer scale4f_branch2a
I0414 09:55:02.639401  1901 net.cpp:150] Setting up scale4f_branch2a
I0414 09:55:02.639408  1901 net.cpp:157] Top shape: 12 256 14 14 (602112)
I0414 09:55:02.639411  1901 net.cpp:165] Memory required for data: 2567405712
I0414 09:55:02.639418  1901 layer_factory.hpp:77] Creating layer res4f_branch2a_relu
I0414 09:55:02.639426  1901 net.cpp:100] Creating Layer res4f_branch2a_relu
I0414 09:55:02.639430  1901 net.cpp:434] res4f_branch2a_relu <- res4f_branch2a
I0414 09:55:02.639436  1901 net.cpp:395] res4f_branch2a_relu -> res4f_branch2a (in-place)
I0414 09:55:02.639649  1901 net.cpp:150] Setting up res4f_branch2a_relu
I0414 09:55:02.639658  1901 net.cpp:157] Top shape: 12 256 14 14 (602112)
I0414 09:55:02.639662  1901 net.cpp:165] Memory required for data: 2569814160
I0414 09:55:02.639667  1901 layer_factory.hpp:77] Creating layer res4f_branch2b
I0414 09:55:02.639678  1901 net.cpp:100] Creating Layer res4f_branch2b
I0414 09:55:02.639683  1901 net.cpp:434] res4f_branch2b <- res4f_branch2a
I0414 09:55:02.639688  1901 net.cpp:408] res4f_branch2b -> res4f_branch2b
I0414 09:55:02.644963  1901 net.cpp:150] Setting up res4f_branch2b
I0414 09:55:02.644981  1901 net.cpp:157] Top shape: 12 256 14 14 (602112)
I0414 09:55:02.644985  1901 net.cpp:165] Memory required for data: 2572222608
I0414 09:55:02.644991  1901 layer_factory.hpp:77] Creating layer bn4f_branch2b
I0414 09:55:02.644999  1901 net.cpp:100] Creating Layer bn4f_branch2b
I0414 09:55:02.645004  1901 net.cpp:434] bn4f_branch2b <- res4f_branch2b
I0414 09:55:02.645016  1901 net.cpp:395] bn4f_branch2b -> res4f_branch2b (in-place)
I0414 09:55:02.645324  1901 net.cpp:150] Setting up bn4f_branch2b
I0414 09:55:02.645333  1901 net.cpp:157] Top shape: 12 256 14 14 (602112)
I0414 09:55:02.645351  1901 net.cpp:165] Memory required for data: 2574631056
I0414 09:55:02.645360  1901 layer_factory.hpp:77] Creating layer scale4f_branch2b
I0414 09:55:02.645367  1901 net.cpp:100] Creating Layer scale4f_branch2b
I0414 09:55:02.645371  1901 net.cpp:434] scale4f_branch2b <- res4f_branch2b
I0414 09:55:02.645376  1901 net.cpp:395] scale4f_branch2b -> res4f_branch2b (in-place)
I0414 09:55:02.645442  1901 layer_factory.hpp:77] Creating layer scale4f_branch2b
I0414 09:55:02.645614  1901 net.cpp:150] Setting up scale4f_branch2b
I0414 09:55:02.645622  1901 net.cpp:157] Top shape: 12 256 14 14 (602112)
I0414 09:55:02.645627  1901 net.cpp:165] Memory required for data: 2577039504
I0414 09:55:02.645632  1901 layer_factory.hpp:77] Creating layer res4f_branch2b_relu
I0414 09:55:02.645638  1901 net.cpp:100] Creating Layer res4f_branch2b_relu
I0414 09:55:02.645642  1901 net.cpp:434] res4f_branch2b_relu <- res4f_branch2b
I0414 09:55:02.645649  1901 net.cpp:395] res4f_branch2b_relu -> res4f_branch2b (in-place)
I0414 09:55:02.646853  1901 net.cpp:150] Setting up res4f_branch2b_relu
I0414 09:55:02.646867  1901 net.cpp:157] Top shape: 12 256 14 14 (602112)
I0414 09:55:02.646872  1901 net.cpp:165] Memory required for data: 2579447952
I0414 09:55:02.646875  1901 layer_factory.hpp:77] Creating layer res4f_branch2c
I0414 09:55:02.646886  1901 net.cpp:100] Creating Layer res4f_branch2c
I0414 09:55:02.646890  1901 net.cpp:434] res4f_branch2c <- res4f_branch2b
I0414 09:55:02.646896  1901 net.cpp:408] res4f_branch2c -> res4f_branch2c
I0414 09:55:02.650529  1901 net.cpp:150] Setting up res4f_branch2c
I0414 09:55:02.650547  1901 net.cpp:157] Top shape: 12 1024 14 14 (2408448)
I0414 09:55:02.650552  1901 net.cpp:165] Memory required for data: 2589081744
I0414 09:55:02.650557  1901 layer_factory.hpp:77] Creating layer bn4f_branch2c
I0414 09:55:02.650565  1901 net.cpp:100] Creating Layer bn4f_branch2c
I0414 09:55:02.650569  1901 net.cpp:434] bn4f_branch2c <- res4f_branch2c
I0414 09:55:02.650578  1901 net.cpp:395] bn4f_branch2c -> res4f_branch2c (in-place)
I0414 09:55:02.650883  1901 net.cpp:150] Setting up bn4f_branch2c
I0414 09:55:02.650892  1901 net.cpp:157] Top shape: 12 1024 14 14 (2408448)
I0414 09:55:02.650895  1901 net.cpp:165] Memory required for data: 2598715536
I0414 09:55:02.650944  1901 layer_factory.hpp:77] Creating layer scale4f_branch2c
I0414 09:55:02.650955  1901 net.cpp:100] Creating Layer scale4f_branch2c
I0414 09:55:02.650959  1901 net.cpp:434] scale4f_branch2c <- res4f_branch2c
I0414 09:55:02.650964  1901 net.cpp:395] scale4f_branch2c -> res4f_branch2c (in-place)
I0414 09:55:02.651024  1901 layer_factory.hpp:77] Creating layer scale4f_branch2c
I0414 09:55:02.651198  1901 net.cpp:150] Setting up scale4f_branch2c
I0414 09:55:02.651206  1901 net.cpp:157] Top shape: 12 1024 14 14 (2408448)
I0414 09:55:02.651209  1901 net.cpp:165] Memory required for data: 2608349328
I0414 09:55:02.651216  1901 layer_factory.hpp:77] Creating layer res4f
I0414 09:55:02.651221  1901 net.cpp:100] Creating Layer res4f
I0414 09:55:02.651226  1901 net.cpp:434] res4f <- res4e_res4e_relu_0_split_1
I0414 09:55:02.651231  1901 net.cpp:434] res4f <- res4f_branch2c
I0414 09:55:02.651237  1901 net.cpp:408] res4f -> res4f
I0414 09:55:02.651274  1901 net.cpp:150] Setting up res4f
I0414 09:55:02.651283  1901 net.cpp:157] Top shape: 12 1024 14 14 (2408448)
I0414 09:55:02.651288  1901 net.cpp:165] Memory required for data: 2617983120
I0414 09:55:02.651290  1901 layer_factory.hpp:77] Creating layer res4f_relu
I0414 09:55:02.651296  1901 net.cpp:100] Creating Layer res4f_relu
I0414 09:55:02.651300  1901 net.cpp:434] res4f_relu <- res4f
I0414 09:55:02.651304  1901 net.cpp:395] res4f_relu -> res4f (in-place)
I0414 09:55:02.651527  1901 net.cpp:150] Setting up res4f_relu
I0414 09:55:02.651537  1901 net.cpp:157] Top shape: 12 1024 14 14 (2408448)
I0414 09:55:02.651540  1901 net.cpp:165] Memory required for data: 2627616912
I0414 09:55:02.651547  1901 layer_factory.hpp:77] Creating layer res4f_res4f_relu_0_split
I0414 09:55:02.651572  1901 net.cpp:100] Creating Layer res4f_res4f_relu_0_split
I0414 09:55:02.651577  1901 net.cpp:434] res4f_res4f_relu_0_split <- res4f
I0414 09:55:02.651582  1901 net.cpp:408] res4f_res4f_relu_0_split -> res4f_res4f_relu_0_split_0
I0414 09:55:02.651589  1901 net.cpp:408] res4f_res4f_relu_0_split -> res4f_res4f_relu_0_split_1
I0414 09:55:02.651656  1901 net.cpp:150] Setting up res4f_res4f_relu_0_split
I0414 09:55:02.651664  1901 net.cpp:157] Top shape: 12 1024 14 14 (2408448)
I0414 09:55:02.651667  1901 net.cpp:157] Top shape: 12 1024 14 14 (2408448)
I0414 09:55:02.651671  1901 net.cpp:165] Memory required for data: 2646884496
I0414 09:55:02.651674  1901 layer_factory.hpp:77] Creating layer res5a_branch1
I0414 09:55:02.651684  1901 net.cpp:100] Creating Layer res5a_branch1
I0414 09:55:02.651688  1901 net.cpp:434] res5a_branch1 <- res4f_res4f_relu_0_split_0
I0414 09:55:02.651695  1901 net.cpp:408] res5a_branch1 -> res5a_branch1
I0414 09:55:02.659377  1901 net.cpp:150] Setting up res5a_branch1
I0414 09:55:02.659395  1901 net.cpp:157] Top shape: 12 2048 7 7 (1204224)
I0414 09:55:02.659399  1901 net.cpp:165] Memory required for data: 2651701392
I0414 09:55:02.659405  1901 layer_factory.hpp:77] Creating layer bn5a_branch1
I0414 09:55:02.659412  1901 net.cpp:100] Creating Layer bn5a_branch1
I0414 09:55:02.659417  1901 net.cpp:434] bn5a_branch1 <- res5a_branch1
I0414 09:55:02.659423  1901 net.cpp:395] bn5a_branch1 -> res5a_branch1 (in-place)
I0414 09:55:02.659790  1901 net.cpp:150] Setting up bn5a_branch1
I0414 09:55:02.659798  1901 net.cpp:157] Top shape: 12 2048 7 7 (1204224)
I0414 09:55:02.659801  1901 net.cpp:165] Memory required for data: 2656518288
I0414 09:55:02.659809  1901 layer_factory.hpp:77] Creating layer scale5a_branch1
I0414 09:55:02.659816  1901 net.cpp:100] Creating Layer scale5a_branch1
I0414 09:55:02.659821  1901 net.cpp:434] scale5a_branch1 <- res5a_branch1
I0414 09:55:02.659826  1901 net.cpp:395] scale5a_branch1 -> res5a_branch1 (in-place)
I0414 09:55:02.659890  1901 layer_factory.hpp:77] Creating layer scale5a_branch1
I0414 09:55:02.660073  1901 net.cpp:150] Setting up scale5a_branch1
I0414 09:55:02.660079  1901 net.cpp:157] Top shape: 12 2048 7 7 (1204224)
I0414 09:55:02.660082  1901 net.cpp:165] Memory required for data: 2661335184
I0414 09:55:02.660089  1901 layer_factory.hpp:77] Creating layer res5a_branch2a
I0414 09:55:02.660104  1901 net.cpp:100] Creating Layer res5a_branch2a
I0414 09:55:02.660107  1901 net.cpp:434] res5a_branch2a <- res4f_res4f_relu_0_split_1
I0414 09:55:02.660112  1901 net.cpp:408] res5a_branch2a -> res5a_branch2a
I0414 09:55:02.664239  1901 net.cpp:150] Setting up res5a_branch2a
I0414 09:55:02.664255  1901 net.cpp:157] Top shape: 12 512 7 7 (301056)
I0414 09:55:02.664259  1901 net.cpp:165] Memory required for data: 2662539408
I0414 09:55:02.664265  1901 layer_factory.hpp:77] Creating layer bn5a_branch2a
I0414 09:55:02.664275  1901 net.cpp:100] Creating Layer bn5a_branch2a
I0414 09:55:02.664280  1901 net.cpp:434] bn5a_branch2a <- res5a_branch2a
I0414 09:55:02.664288  1901 net.cpp:395] bn5a_branch2a -> res5a_branch2a (in-place)
I0414 09:55:02.664592  1901 net.cpp:150] Setting up bn5a_branch2a
I0414 09:55:02.664600  1901 net.cpp:157] Top shape: 12 512 7 7 (301056)
I0414 09:55:02.664604  1901 net.cpp:165] Memory required for data: 2663743632
I0414 09:55:02.664613  1901 layer_factory.hpp:77] Creating layer scale5a_branch2a
I0414 09:55:02.664621  1901 net.cpp:100] Creating Layer scale5a_branch2a
I0414 09:55:02.664625  1901 net.cpp:434] scale5a_branch2a <- res5a_branch2a
I0414 09:55:02.664630  1901 net.cpp:395] scale5a_branch2a -> res5a_branch2a (in-place)
I0414 09:55:02.664687  1901 layer_factory.hpp:77] Creating layer scale5a_branch2a
I0414 09:55:02.664870  1901 net.cpp:150] Setting up scale5a_branch2a
I0414 09:55:02.664878  1901 net.cpp:157] Top shape: 12 512 7 7 (301056)
I0414 09:55:02.664881  1901 net.cpp:165] Memory required for data: 2664947856
I0414 09:55:02.664888  1901 layer_factory.hpp:77] Creating layer res5a_branch2a_relu
I0414 09:55:02.664898  1901 net.cpp:100] Creating Layer res5a_branch2a_relu
I0414 09:55:02.664917  1901 net.cpp:434] res5a_branch2a_relu <- res5a_branch2a
I0414 09:55:02.664922  1901 net.cpp:395] res5a_branch2a_relu -> res5a_branch2a (in-place)
I0414 09:55:02.665145  1901 net.cpp:150] Setting up res5a_branch2a_relu
I0414 09:55:02.665155  1901 net.cpp:157] Top shape: 12 512 7 7 (301056)
I0414 09:55:02.665158  1901 net.cpp:165] Memory required for data: 2666152080
I0414 09:55:02.665163  1901 layer_factory.hpp:77] Creating layer res5a_branch2b
I0414 09:55:02.665172  1901 net.cpp:100] Creating Layer res5a_branch2b
I0414 09:55:02.665176  1901 net.cpp:434] res5a_branch2b <- res5a_branch2a
I0414 09:55:02.665182  1901 net.cpp:408] res5a_branch2b -> res5a_branch2b
I0414 09:55:02.674688  1901 net.cpp:150] Setting up res5a_branch2b
I0414 09:55:02.674708  1901 net.cpp:157] Top shape: 12 512 7 7 (301056)
I0414 09:55:02.674713  1901 net.cpp:165] Memory required for data: 2667356304
I0414 09:55:02.674720  1901 layer_factory.hpp:77] Creating layer bn5a_branch2b
I0414 09:55:02.674727  1901 net.cpp:100] Creating Layer bn5a_branch2b
I0414 09:55:02.674732  1901 net.cpp:434] bn5a_branch2b <- res5a_branch2b
I0414 09:55:02.674738  1901 net.cpp:395] bn5a_branch2b -> res5a_branch2b (in-place)
I0414 09:55:02.675050  1901 net.cpp:150] Setting up bn5a_branch2b
I0414 09:55:02.675058  1901 net.cpp:157] Top shape: 12 512 7 7 (301056)
I0414 09:55:02.675062  1901 net.cpp:165] Memory required for data: 2668560528
I0414 09:55:02.675071  1901 layer_factory.hpp:77] Creating layer scale5a_branch2b
I0414 09:55:02.675077  1901 net.cpp:100] Creating Layer scale5a_branch2b
I0414 09:55:02.675081  1901 net.cpp:434] scale5a_branch2b <- res5a_branch2b
I0414 09:55:02.675087  1901 net.cpp:395] scale5a_branch2b -> res5a_branch2b (in-place)
I0414 09:55:02.675148  1901 layer_factory.hpp:77] Creating layer scale5a_branch2b
I0414 09:55:02.675328  1901 net.cpp:150] Setting up scale5a_branch2b
I0414 09:55:02.675335  1901 net.cpp:157] Top shape: 12 512 7 7 (301056)
I0414 09:55:02.675338  1901 net.cpp:165] Memory required for data: 2669764752
I0414 09:55:02.675345  1901 layer_factory.hpp:77] Creating layer res5a_branch2b_relu
I0414 09:55:02.675354  1901 net.cpp:100] Creating Layer res5a_branch2b_relu
I0414 09:55:02.675357  1901 net.cpp:434] res5a_branch2b_relu <- res5a_branch2b
I0414 09:55:02.675364  1901 net.cpp:395] res5a_branch2b_relu -> res5a_branch2b (in-place)
I0414 09:55:02.675572  1901 net.cpp:150] Setting up res5a_branch2b_relu
I0414 09:55:02.675581  1901 net.cpp:157] Top shape: 12 512 7 7 (301056)
I0414 09:55:02.675585  1901 net.cpp:165] Memory required for data: 2670968976
I0414 09:55:02.675588  1901 layer_factory.hpp:77] Creating layer res5a_branch2c
I0414 09:55:02.675598  1901 net.cpp:100] Creating Layer res5a_branch2c
I0414 09:55:02.675602  1901 net.cpp:434] res5a_branch2c <- res5a_branch2b
I0414 09:55:02.675608  1901 net.cpp:408] res5a_branch2c -> res5a_branch2c
I0414 09:55:02.680728  1901 net.cpp:150] Setting up res5a_branch2c
I0414 09:55:02.680745  1901 net.cpp:157] Top shape: 12 2048 7 7 (1204224)
I0414 09:55:02.680748  1901 net.cpp:165] Memory required for data: 2675785872
I0414 09:55:02.680755  1901 layer_factory.hpp:77] Creating layer bn5a_branch2c
I0414 09:55:02.680765  1901 net.cpp:100] Creating Layer bn5a_branch2c
I0414 09:55:02.680769  1901 net.cpp:434] bn5a_branch2c <- res5a_branch2c
I0414 09:55:02.680778  1901 net.cpp:395] bn5a_branch2c -> res5a_branch2c (in-place)
I0414 09:55:02.681082  1901 net.cpp:150] Setting up bn5a_branch2c
I0414 09:55:02.681089  1901 net.cpp:157] Top shape: 12 2048 7 7 (1204224)
I0414 09:55:02.681093  1901 net.cpp:165] Memory required for data: 2680602768
I0414 09:55:02.681102  1901 layer_factory.hpp:77] Creating layer scale5a_branch2c
I0414 09:55:02.681108  1901 net.cpp:100] Creating Layer scale5a_branch2c
I0414 09:55:02.681113  1901 net.cpp:434] scale5a_branch2c <- res5a_branch2c
I0414 09:55:02.681119  1901 net.cpp:395] scale5a_branch2c -> res5a_branch2c (in-place)
I0414 09:55:02.681192  1901 layer_factory.hpp:77] Creating layer scale5a_branch2c
I0414 09:55:02.681401  1901 net.cpp:150] Setting up scale5a_branch2c
I0414 09:55:02.681408  1901 net.cpp:157] Top shape: 12 2048 7 7 (1204224)
I0414 09:55:02.681412  1901 net.cpp:165] Memory required for data: 2685419664
I0414 09:55:02.681418  1901 layer_factory.hpp:77] Creating layer res5a
I0414 09:55:02.681426  1901 net.cpp:100] Creating Layer res5a
I0414 09:55:02.681429  1901 net.cpp:434] res5a <- res5a_branch1
I0414 09:55:02.681434  1901 net.cpp:434] res5a <- res5a_branch2c
I0414 09:55:02.681439  1901 net.cpp:408] res5a -> res5a
I0414 09:55:02.681478  1901 net.cpp:150] Setting up res5a
I0414 09:55:02.681485  1901 net.cpp:157] Top shape: 12 2048 7 7 (1204224)
I0414 09:55:02.681489  1901 net.cpp:165] Memory required for data: 2690236560
I0414 09:55:02.681493  1901 layer_factory.hpp:77] Creating layer res5a_relu
I0414 09:55:02.681500  1901 net.cpp:100] Creating Layer res5a_relu
I0414 09:55:02.681504  1901 net.cpp:434] res5a_relu <- res5a
I0414 09:55:02.681509  1901 net.cpp:395] res5a_relu -> res5a (in-place)
I0414 09:55:02.681721  1901 net.cpp:150] Setting up res5a_relu
I0414 09:55:02.681733  1901 net.cpp:157] Top shape: 12 2048 7 7 (1204224)
I0414 09:55:02.681737  1901 net.cpp:165] Memory required for data: 2695053456
I0414 09:55:02.681741  1901 layer_factory.hpp:77] Creating layer res5a_res5a_relu_0_split
I0414 09:55:02.681747  1901 net.cpp:100] Creating Layer res5a_res5a_relu_0_split
I0414 09:55:02.681751  1901 net.cpp:434] res5a_res5a_relu_0_split <- res5a
I0414 09:55:02.681756  1901 net.cpp:408] res5a_res5a_relu_0_split -> res5a_res5a_relu_0_split_0
I0414 09:55:02.681762  1901 net.cpp:408] res5a_res5a_relu_0_split -> res5a_res5a_relu_0_split_1
I0414 09:55:02.681828  1901 net.cpp:150] Setting up res5a_res5a_relu_0_split
I0414 09:55:02.681833  1901 net.cpp:157] Top shape: 12 2048 7 7 (1204224)
I0414 09:55:02.681838  1901 net.cpp:157] Top shape: 12 2048 7 7 (1204224)
I0414 09:55:02.681841  1901 net.cpp:165] Memory required for data: 2704687248
I0414 09:55:02.681844  1901 layer_factory.hpp:77] Creating layer res5b_branch2a
I0414 09:55:02.681854  1901 net.cpp:100] Creating Layer res5b_branch2a
I0414 09:55:02.681859  1901 net.cpp:434] res5b_branch2a <- res5a_res5a_relu_0_split_0
I0414 09:55:02.681865  1901 net.cpp:408] res5b_branch2a -> res5b_branch2a
I0414 09:55:02.686981  1901 net.cpp:150] Setting up res5b_branch2a
I0414 09:55:02.687000  1901 net.cpp:157] Top shape: 12 512 7 7 (301056)
I0414 09:55:02.687003  1901 net.cpp:165] Memory required for data: 2705891472
I0414 09:55:02.687010  1901 layer_factory.hpp:77] Creating layer bn5b_branch2a
I0414 09:55:02.687017  1901 net.cpp:100] Creating Layer bn5b_branch2a
I0414 09:55:02.687022  1901 net.cpp:434] bn5b_branch2a <- res5b_branch2a
I0414 09:55:02.687029  1901 net.cpp:395] bn5b_branch2a -> res5b_branch2a (in-place)
I0414 09:55:02.687337  1901 net.cpp:150] Setting up bn5b_branch2a
I0414 09:55:02.687345  1901 net.cpp:157] Top shape: 12 512 7 7 (301056)
I0414 09:55:02.687350  1901 net.cpp:165] Memory required for data: 2707095696
I0414 09:55:02.687357  1901 layer_factory.hpp:77] Creating layer scale5b_branch2a
I0414 09:55:02.687364  1901 net.cpp:100] Creating Layer scale5b_branch2a
I0414 09:55:02.687368  1901 net.cpp:434] scale5b_branch2a <- res5b_branch2a
I0414 09:55:02.687373  1901 net.cpp:395] scale5b_branch2a -> res5b_branch2a (in-place)
I0414 09:55:02.687433  1901 layer_factory.hpp:77] Creating layer scale5b_branch2a
I0414 09:55:02.687616  1901 net.cpp:150] Setting up scale5b_branch2a
I0414 09:55:02.687624  1901 net.cpp:157] Top shape: 12 512 7 7 (301056)
I0414 09:55:02.687628  1901 net.cpp:165] Memory required for data: 2708299920
I0414 09:55:02.687633  1901 layer_factory.hpp:77] Creating layer res5b_branch2a_relu
I0414 09:55:02.687639  1901 net.cpp:100] Creating Layer res5b_branch2a_relu
I0414 09:55:02.687644  1901 net.cpp:434] res5b_branch2a_relu <- res5b_branch2a
I0414 09:55:02.687650  1901 net.cpp:395] res5b_branch2a_relu -> res5b_branch2a (in-place)
I0414 09:55:02.687861  1901 net.cpp:150] Setting up res5b_branch2a_relu
I0414 09:55:02.687876  1901 net.cpp:157] Top shape: 12 512 7 7 (301056)
I0414 09:55:02.687894  1901 net.cpp:165] Memory required for data: 2709504144
I0414 09:55:02.687899  1901 layer_factory.hpp:77] Creating layer res5b_branch2b
I0414 09:55:02.687909  1901 net.cpp:100] Creating Layer res5b_branch2b
I0414 09:55:02.687914  1901 net.cpp:434] res5b_branch2b <- res5b_branch2a
I0414 09:55:02.687921  1901 net.cpp:408] res5b_branch2b -> res5b_branch2b
I0414 09:55:02.696300  1901 net.cpp:150] Setting up res5b_branch2b
I0414 09:55:02.696316  1901 net.cpp:157] Top shape: 12 512 7 7 (301056)
I0414 09:55:02.696321  1901 net.cpp:165] Memory required for data: 2710708368
I0414 09:55:02.696326  1901 layer_factory.hpp:77] Creating layer bn5b_branch2b
I0414 09:55:02.696336  1901 net.cpp:100] Creating Layer bn5b_branch2b
I0414 09:55:02.696341  1901 net.cpp:434] bn5b_branch2b <- res5b_branch2b
I0414 09:55:02.696349  1901 net.cpp:395] bn5b_branch2b -> res5b_branch2b (in-place)
I0414 09:55:02.696660  1901 net.cpp:150] Setting up bn5b_branch2b
I0414 09:55:02.696667  1901 net.cpp:157] Top shape: 12 512 7 7 (301056)
I0414 09:55:02.696671  1901 net.cpp:165] Memory required for data: 2711912592
I0414 09:55:02.696679  1901 layer_factory.hpp:77] Creating layer scale5b_branch2b
I0414 09:55:02.696691  1901 net.cpp:100] Creating Layer scale5b_branch2b
I0414 09:55:02.696694  1901 net.cpp:434] scale5b_branch2b <- res5b_branch2b
I0414 09:55:02.696699  1901 net.cpp:395] scale5b_branch2b -> res5b_branch2b (in-place)
I0414 09:55:02.696756  1901 layer_factory.hpp:77] Creating layer scale5b_branch2b
I0414 09:55:02.696938  1901 net.cpp:150] Setting up scale5b_branch2b
I0414 09:55:02.696945  1901 net.cpp:157] Top shape: 12 512 7 7 (301056)
I0414 09:55:02.696949  1901 net.cpp:165] Memory required for data: 2713116816
I0414 09:55:02.696955  1901 layer_factory.hpp:77] Creating layer res5b_branch2b_relu
I0414 09:55:02.696961  1901 net.cpp:100] Creating Layer res5b_branch2b_relu
I0414 09:55:02.696964  1901 net.cpp:434] res5b_branch2b_relu <- res5b_branch2b
I0414 09:55:02.696969  1901 net.cpp:395] res5b_branch2b_relu -> res5b_branch2b (in-place)
I0414 09:55:02.698190  1901 net.cpp:150] Setting up res5b_branch2b_relu
I0414 09:55:02.698204  1901 net.cpp:157] Top shape: 12 512 7 7 (301056)
I0414 09:55:02.698209  1901 net.cpp:165] Memory required for data: 2714321040
I0414 09:55:02.698213  1901 layer_factory.hpp:77] Creating layer res5b_branch2c
I0414 09:55:02.698225  1901 net.cpp:100] Creating Layer res5b_branch2c
I0414 09:55:02.698228  1901 net.cpp:434] res5b_branch2c <- res5b_branch2b
I0414 09:55:02.698235  1901 net.cpp:408] res5b_branch2c -> res5b_branch2c
I0414 09:55:02.702379  1901 net.cpp:150] Setting up res5b_branch2c
I0414 09:55:02.702395  1901 net.cpp:157] Top shape: 12 2048 7 7 (1204224)
I0414 09:55:02.702399  1901 net.cpp:165] Memory required for data: 2719137936
I0414 09:55:02.702405  1901 layer_factory.hpp:77] Creating layer bn5b_branch2c
I0414 09:55:02.702414  1901 net.cpp:100] Creating Layer bn5b_branch2c
I0414 09:55:02.702417  1901 net.cpp:434] bn5b_branch2c <- res5b_branch2c
I0414 09:55:02.702426  1901 net.cpp:395] bn5b_branch2c -> res5b_branch2c (in-place)
I0414 09:55:02.702742  1901 net.cpp:150] Setting up bn5b_branch2c
I0414 09:55:02.702750  1901 net.cpp:157] Top shape: 12 2048 7 7 (1204224)
I0414 09:55:02.702754  1901 net.cpp:165] Memory required for data: 2723954832
I0414 09:55:02.702761  1901 layer_factory.hpp:77] Creating layer scale5b_branch2c
I0414 09:55:02.702769  1901 net.cpp:100] Creating Layer scale5b_branch2c
I0414 09:55:02.702772  1901 net.cpp:434] scale5b_branch2c <- res5b_branch2c
I0414 09:55:02.702777  1901 net.cpp:395] scale5b_branch2c -> res5b_branch2c (in-place)
I0414 09:55:02.702838  1901 layer_factory.hpp:77] Creating layer scale5b_branch2c
I0414 09:55:02.703025  1901 net.cpp:150] Setting up scale5b_branch2c
I0414 09:55:02.703033  1901 net.cpp:157] Top shape: 12 2048 7 7 (1204224)
I0414 09:55:02.703037  1901 net.cpp:165] Memory required for data: 2728771728
I0414 09:55:02.703042  1901 layer_factory.hpp:77] Creating layer res5b
I0414 09:55:02.703052  1901 net.cpp:100] Creating Layer res5b
I0414 09:55:02.703073  1901 net.cpp:434] res5b <- res5a_res5a_relu_0_split_1
I0414 09:55:02.703078  1901 net.cpp:434] res5b <- res5b_branch2c
I0414 09:55:02.703085  1901 net.cpp:408] res5b -> res5b
I0414 09:55:02.703127  1901 net.cpp:150] Setting up res5b
I0414 09:55:02.703135  1901 net.cpp:157] Top shape: 12 2048 7 7 (1204224)
I0414 09:55:02.703137  1901 net.cpp:165] Memory required for data: 2733588624
I0414 09:55:02.703141  1901 layer_factory.hpp:77] Creating layer res5b_relu
I0414 09:55:02.703150  1901 net.cpp:100] Creating Layer res5b_relu
I0414 09:55:02.703153  1901 net.cpp:434] res5b_relu <- res5b
I0414 09:55:02.703158  1901 net.cpp:395] res5b_relu -> res5b (in-place)
I0414 09:55:02.704380  1901 net.cpp:150] Setting up res5b_relu
I0414 09:55:02.704396  1901 net.cpp:157] Top shape: 12 2048 7 7 (1204224)
I0414 09:55:02.704401  1901 net.cpp:165] Memory required for data: 2738405520
I0414 09:55:02.704404  1901 layer_factory.hpp:77] Creating layer res5b_res5b_relu_0_split
I0414 09:55:02.704411  1901 net.cpp:100] Creating Layer res5b_res5b_relu_0_split
I0414 09:55:02.704416  1901 net.cpp:434] res5b_res5b_relu_0_split <- res5b
I0414 09:55:02.704422  1901 net.cpp:408] res5b_res5b_relu_0_split -> res5b_res5b_relu_0_split_0
I0414 09:55:02.704429  1901 net.cpp:408] res5b_res5b_relu_0_split -> res5b_res5b_relu_0_split_1
I0414 09:55:02.704499  1901 net.cpp:150] Setting up res5b_res5b_relu_0_split
I0414 09:55:02.704505  1901 net.cpp:157] Top shape: 12 2048 7 7 (1204224)
I0414 09:55:02.704510  1901 net.cpp:157] Top shape: 12 2048 7 7 (1204224)
I0414 09:55:02.704514  1901 net.cpp:165] Memory required for data: 2748039312
I0414 09:55:02.704516  1901 layer_factory.hpp:77] Creating layer res5c_branch2a
I0414 09:55:02.704526  1901 net.cpp:100] Creating Layer res5c_branch2a
I0414 09:55:02.704531  1901 net.cpp:434] res5c_branch2a <- res5b_res5b_relu_0_split_0
I0414 09:55:02.704538  1901 net.cpp:408] res5c_branch2a -> res5c_branch2a
I0414 09:55:02.709692  1901 net.cpp:150] Setting up res5c_branch2a
I0414 09:55:02.709710  1901 net.cpp:157] Top shape: 12 512 7 7 (301056)
I0414 09:55:02.709714  1901 net.cpp:165] Memory required for data: 2749243536
I0414 09:55:02.709722  1901 layer_factory.hpp:77] Creating layer bn5c_branch2a
I0414 09:55:02.709729  1901 net.cpp:100] Creating Layer bn5c_branch2a
I0414 09:55:02.709733  1901 net.cpp:434] bn5c_branch2a <- res5c_branch2a
I0414 09:55:02.709741  1901 net.cpp:395] bn5c_branch2a -> res5c_branch2a (in-place)
I0414 09:55:02.710059  1901 net.cpp:150] Setting up bn5c_branch2a
I0414 09:55:02.710067  1901 net.cpp:157] Top shape: 12 512 7 7 (301056)
I0414 09:55:02.710070  1901 net.cpp:165] Memory required for data: 2750447760
I0414 09:55:02.710079  1901 layer_factory.hpp:77] Creating layer scale5c_branch2a
I0414 09:55:02.710085  1901 net.cpp:100] Creating Layer scale5c_branch2a
I0414 09:55:02.710089  1901 net.cpp:434] scale5c_branch2a <- res5c_branch2a
I0414 09:55:02.710094  1901 net.cpp:395] scale5c_branch2a -> res5c_branch2a (in-place)
I0414 09:55:02.710155  1901 layer_factory.hpp:77] Creating layer scale5c_branch2a
I0414 09:55:02.710337  1901 net.cpp:150] Setting up scale5c_branch2a
I0414 09:55:02.710345  1901 net.cpp:157] Top shape: 12 512 7 7 (301056)
I0414 09:55:02.710348  1901 net.cpp:165] Memory required for data: 2751651984
I0414 09:55:02.710355  1901 layer_factory.hpp:77] Creating layer res5c_branch2a_relu
I0414 09:55:02.710361  1901 net.cpp:100] Creating Layer res5c_branch2a_relu
I0414 09:55:02.710366  1901 net.cpp:434] res5c_branch2a_relu <- res5c_branch2a
I0414 09:55:02.710372  1901 net.cpp:395] res5c_branch2a_relu -> res5c_branch2a (in-place)
I0414 09:55:02.710583  1901 net.cpp:150] Setting up res5c_branch2a_relu
I0414 09:55:02.710593  1901 net.cpp:157] Top shape: 12 512 7 7 (301056)
I0414 09:55:02.710597  1901 net.cpp:165] Memory required for data: 2752856208
I0414 09:55:02.710600  1901 layer_factory.hpp:77] Creating layer res5c_branch2b
I0414 09:55:02.710611  1901 net.cpp:100] Creating Layer res5c_branch2b
I0414 09:55:02.710619  1901 net.cpp:434] res5c_branch2b <- res5c_branch2a
I0414 09:55:02.710640  1901 net.cpp:408] res5c_branch2b -> res5c_branch2b
I0414 09:55:02.720671  1901 net.cpp:150] Setting up res5c_branch2b
I0414 09:55:02.720690  1901 net.cpp:157] Top shape: 12 512 7 7 (301056)
I0414 09:55:02.720695  1901 net.cpp:165] Memory required for data: 2754060432
I0414 09:55:02.720700  1901 layer_factory.hpp:77] Creating layer bn5c_branch2b
I0414 09:55:02.720710  1901 net.cpp:100] Creating Layer bn5c_branch2b
I0414 09:55:02.720716  1901 net.cpp:434] bn5c_branch2b <- res5c_branch2b
I0414 09:55:02.720724  1901 net.cpp:395] bn5c_branch2b -> res5c_branch2b (in-place)
I0414 09:55:02.721035  1901 net.cpp:150] Setting up bn5c_branch2b
I0414 09:55:02.721042  1901 net.cpp:157] Top shape: 12 512 7 7 (301056)
I0414 09:55:02.721046  1901 net.cpp:165] Memory required for data: 2755264656
I0414 09:55:02.721055  1901 layer_factory.hpp:77] Creating layer scale5c_branch2b
I0414 09:55:02.721066  1901 net.cpp:100] Creating Layer scale5c_branch2b
I0414 09:55:02.721071  1901 net.cpp:434] scale5c_branch2b <- res5c_branch2b
I0414 09:55:02.721076  1901 net.cpp:395] scale5c_branch2b -> res5c_branch2b (in-place)
I0414 09:55:02.721133  1901 layer_factory.hpp:77] Creating layer scale5c_branch2b
I0414 09:55:02.721312  1901 net.cpp:150] Setting up scale5c_branch2b
I0414 09:55:02.721320  1901 net.cpp:157] Top shape: 12 512 7 7 (301056)
I0414 09:55:02.721323  1901 net.cpp:165] Memory required for data: 2756468880
I0414 09:55:02.721330  1901 layer_factory.hpp:77] Creating layer res5c_branch2b_relu
I0414 09:55:02.721335  1901 net.cpp:100] Creating Layer res5c_branch2b_relu
I0414 09:55:02.721339  1901 net.cpp:434] res5c_branch2b_relu <- res5c_branch2b
I0414 09:55:02.721344  1901 net.cpp:395] res5c_branch2b_relu -> res5c_branch2b (in-place)
I0414 09:55:02.721563  1901 net.cpp:150] Setting up res5c_branch2b_relu
I0414 09:55:02.721572  1901 net.cpp:157] Top shape: 12 512 7 7 (301056)
I0414 09:55:02.721576  1901 net.cpp:165] Memory required for data: 2757673104
I0414 09:55:02.721580  1901 layer_factory.hpp:77] Creating layer res5c_branch2c
I0414 09:55:02.721590  1901 net.cpp:100] Creating Layer res5c_branch2c
I0414 09:55:02.721595  1901 net.cpp:434] res5c_branch2c <- res5c_branch2b
I0414 09:55:02.721601  1901 net.cpp:408] res5c_branch2c -> res5c_branch2c
I0414 09:55:02.726774  1901 net.cpp:150] Setting up res5c_branch2c
I0414 09:55:02.726793  1901 net.cpp:157] Top shape: 12 2048 7 7 (1204224)
I0414 09:55:02.726796  1901 net.cpp:165] Memory required for data: 2762490000
I0414 09:55:02.726802  1901 layer_factory.hpp:77] Creating layer bn5c_branch2c
I0414 09:55:02.726810  1901 net.cpp:100] Creating Layer bn5c_branch2c
I0414 09:55:02.726815  1901 net.cpp:434] bn5c_branch2c <- res5c_branch2c
I0414 09:55:02.726820  1901 net.cpp:395] bn5c_branch2c -> res5c_branch2c (in-place)
I0414 09:55:02.727138  1901 net.cpp:150] Setting up bn5c_branch2c
I0414 09:55:02.727146  1901 net.cpp:157] Top shape: 12 2048 7 7 (1204224)
I0414 09:55:02.727149  1901 net.cpp:165] Memory required for data: 2767306896
I0414 09:55:02.727157  1901 layer_factory.hpp:77] Creating layer scale5c_branch2c
I0414 09:55:02.727164  1901 net.cpp:100] Creating Layer scale5c_branch2c
I0414 09:55:02.727169  1901 net.cpp:434] scale5c_branch2c <- res5c_branch2c
I0414 09:55:02.727174  1901 net.cpp:395] scale5c_branch2c -> res5c_branch2c (in-place)
I0414 09:55:02.727237  1901 layer_factory.hpp:77] Creating layer scale5c_branch2c
I0414 09:55:02.727428  1901 net.cpp:150] Setting up scale5c_branch2c
I0414 09:55:02.727435  1901 net.cpp:157] Top shape: 12 2048 7 7 (1204224)
I0414 09:55:02.727439  1901 net.cpp:165] Memory required for data: 2772123792
I0414 09:55:02.727445  1901 layer_factory.hpp:77] Creating layer res5c
I0414 09:55:02.727453  1901 net.cpp:100] Creating Layer res5c
I0414 09:55:02.727458  1901 net.cpp:434] res5c <- res5b_res5b_relu_0_split_1
I0414 09:55:02.727463  1901 net.cpp:434] res5c <- res5c_branch2c
I0414 09:55:02.727468  1901 net.cpp:408] res5c -> res5c
I0414 09:55:02.728998  1901 net.cpp:150] Setting up res5c
I0414 09:55:02.729017  1901 net.cpp:157] Top shape: 12 2048 7 7 (1204224)
I0414 09:55:02.729040  1901 net.cpp:165] Memory required for data: 2776940688
I0414 09:55:02.729045  1901 layer_factory.hpp:77] Creating layer res5c_relu
I0414 09:55:02.729053  1901 net.cpp:100] Creating Layer res5c_relu
I0414 09:55:02.729058  1901 net.cpp:434] res5c_relu <- res5c
I0414 09:55:02.729063  1901 net.cpp:395] res5c_relu -> res5c (in-place)
I0414 09:55:02.729293  1901 net.cpp:150] Setting up res5c_relu
I0414 09:55:02.729303  1901 net.cpp:157] Top shape: 12 2048 7 7 (1204224)
I0414 09:55:02.729308  1901 net.cpp:165] Memory required for data: 2781757584
I0414 09:55:02.729312  1901 layer_factory.hpp:77] Creating layer pool5
I0414 09:55:02.729321  1901 net.cpp:100] Creating Layer pool5
I0414 09:55:02.729324  1901 net.cpp:434] pool5 <- res5c
I0414 09:55:02.729331  1901 net.cpp:408] pool5 -> pool5
I0414 09:55:02.729569  1901 net.cpp:150] Setting up pool5
I0414 09:55:02.729579  1901 net.cpp:157] Top shape: 12 2048 1 1 (24576)
I0414 09:55:02.729583  1901 net.cpp:165] Memory required for data: 2781855888
I0414 09:55:02.729586  1901 layer_factory.hpp:77] Creating layer fc-3
I0414 09:55:02.729595  1901 net.cpp:100] Creating Layer fc-3
I0414 09:55:02.729599  1901 net.cpp:434] fc-3 <- pool5
I0414 09:55:02.729607  1901 net.cpp:408] fc-3 -> fc-3
I0414 09:55:02.729743  1901 net.cpp:150] Setting up fc-3
I0414 09:55:02.729750  1901 net.cpp:157] Top shape: 12 3 (36)
I0414 09:55:02.729753  1901 net.cpp:165] Memory required for data: 2781856032
I0414 09:55:02.729761  1901 layer_factory.hpp:77] Creating layer fc-3_fc-3_0_split
I0414 09:55:02.729768  1901 net.cpp:100] Creating Layer fc-3_fc-3_0_split
I0414 09:55:02.729773  1901 net.cpp:434] fc-3_fc-3_0_split <- fc-3
I0414 09:55:02.729778  1901 net.cpp:408] fc-3_fc-3_0_split -> fc-3_fc-3_0_split_0
I0414 09:55:02.729784  1901 net.cpp:408] fc-3_fc-3_0_split -> fc-3_fc-3_0_split_1
I0414 09:55:02.729822  1901 net.cpp:150] Setting up fc-3_fc-3_0_split
I0414 09:55:02.729828  1901 net.cpp:157] Top shape: 12 3 (36)
I0414 09:55:02.729832  1901 net.cpp:157] Top shape: 12 3 (36)
I0414 09:55:02.729835  1901 net.cpp:165] Memory required for data: 2781856320
I0414 09:55:02.729838  1901 layer_factory.hpp:77] Creating layer loss
I0414 09:55:02.729845  1901 net.cpp:100] Creating Layer loss
I0414 09:55:02.729848  1901 net.cpp:434] loss <- fc-3_fc-3_0_split_0
I0414 09:55:02.729853  1901 net.cpp:434] loss <- label_data_1_split_0
I0414 09:55:02.729861  1901 net.cpp:408] loss -> loss
…
